ml-models/braking_score_lstm_model.onnx (onnx, 80205 bytes, 4 tensors)

fc.weight f4 [1, 64]
00000000: 2b4a c2bd 6c8f 8bbd 9df2 93bd 0399 163d
00000010: 6b61 913d d396 2d3d 6eae 5ebd 1901 c0bc
00000020: 55a9 b03d daee ca3d 44c6 8d3d bcd3 ebbd
00000030: b009 3d3d 13f7 cebd c25b 973d 22c9 373d
00000040: fe7c 343d 096f d3bd 111d f4ba 3bdd a0bb
00000050: 777f 40bc 2bd9 7a3a 7f0e 9ebc 185a 543d
00000060: cccf 003e 35bf b43d a99f 853d 824c 2d3d
00000070: 409b dc3d 5685 d0bd d2a2 793d a60a ad3d
00000080: e693 ba3c 8352 2ebd 475e cc3d 8114 c03d
00000090: c808 03ba bd1b 443d 12d3 ab3b 9d6d 94bc
000000a0: 9452 c93d 9e0a dbbd 0ffe c33d be7b 92bc
000000b0: 51fc 863d 3ec1 4dbd 5f43 c8bc 9e5e 313d
000000c0: dd9c 5f3c b5c2 253d 030d 5f3d d2ab 12bd
000000d0: ef5d f9bb d025 d73d fd6a 1b3c dd6c a43d
000000e0: 218c d83a e4c1 333d 867b a3bc 1a4d 87bc
000000f0: 4e12 19bd beb0 dd3c 7979 70bd fc7c 52bd
-0.09486803 -0.06814465 -0.07224009 0.036767017 0.07098659 0.042380165 -0.054365568 -0.023438023
0.086260475 0.099088386 0.06922582 -0.115149945 0.046151817 -0.101057194 0.07390548 0.04486955
0.044064514 -0.10323913 -0.0018624385 -0.004909185 -0.01174914 0.0009569104 -0.019294022 0.051843733
0.12579268 0.08825532 0.065245934 0.04230929 0.10771799 -0.10181682 0.060946293 0.08449297
0.022775602 -0.042559158 0.099789195 0.09378911 -0.0004998562 0.047878016 0.0052436674 -0.018118674
0.09830204 -0.106953844 0.09569942 -0.01788127 0.06591094 -0.05023312 -0.024446188 0.043303125
0.013648239 0.04046889 0.05445577 -0.035808392 -0.0076100747 0.10505259 0.009485957 0.080285765
0.0016521254 0.04388608 -0.019956362 -0.016516257 -0.037370972 0.027061816 -0.058709595 -0.051388726

onnx::LSTM_96 f4 [1, 256, 11]
00000000: 0f02 7e3b 9ab7 abbb ec8d 50bd 733b fd3c
00000010: 921b 563c 2758 01bd 3c70 7cbd 8312 30bd
00000020: 4c2f c4bd b71d 753d baec 62bc d846 b33d
00000030: 6c0f 783c c017 bfbc 3a04 80bd 002a dabd
00000040: a94b e03d 5cb3 583d a6cf b5bd ec26 8c3d
00000050: d313 44bd dce8 463c defa e53d 4007 923d
00000060: 4941 4bbc 2da4 2abc 94ab 93bd 565f cb3d
00000070: 1e6b b03d 6818 1fbc 1cb0 a03d 772c 80bd
00000080: 00c4 fe3d ae66 713d 4ee1 a1bd a144 e1bd
00000090: 8092 cf3c f696 78bd 375a 8bbd 8943 bd3d
000000a0: a9f7 81bd 70d9 a93c 2d76 f3bd e9f0 a23c
000000b0: 6ddb bdbc 2ec6 aa3d b09e c43c 8846 c2bd
000000c0: 9b8f 85bb b496 a73d 7e01 d03a 6ecd 7a3c
000000d0: 3eb1 cdbd 4e12 e1bd b57a 2e3d c79c 38bd
000000e0: 46ec eebd ab03 81bd 1a93 16bc 6fc0 9e3d
000000f0: 7a21 df3d df41 86bd 1ad0 cb3d 408f e4bc
00000100: 87a2 a83d 3670 73bc bf34 ef3d 2408 1cbd
00000110: 2902 d13c cfb2 4c3c effc 6fbd 7b78 113c
00000120: 034e 383b dd48 aebd 7692 d7bd 7a7a aebd
00000130: 24df 1aba d75a 67bd 4fb7 c73d 4d67 38bd
00000140: d23d 973d 2b81 093d 228e e5bc 60e3 90bc
00000150: 8b04 60bd 3a8d 843d 6056 6c3d 96af a33d
00000160: 49f2 d43d be02 a8bd efa6 cebd b6d0 643d
00000170: 3779 0dbc 93ba 75bd 4383 d4bc ed6d c13d
00000180: 020b b0bd a5ac 0c3c d2a4 4ebc d1fa eb3d
00000190: 0630 433d f60b f53d a600 f63d 3974 b1bd
000001a0: 8058 bf3d d31a 1abd 493c b33d b430 44bd
000001b0: fca1 71bd b8ec c7bd c99e 87bd b810 e6bb
000001c0: f459 323d 236e 0bbc d53d 7d3d b1da 93bd
000001d0: ec27 3ebd 3fab 993d 1c15 283d eab3 cbbd
000001e0: d2e6 903d 4d35 f93d e2b5 d6bd d8e4 1abd
000001f0: 4b6d 8cbd c6f3 263d 9be1 7dbd c2fc b0bd
00000200: afe9 cbbc f042 4c3d 6ec9 b9bd bcff f93d
00000210: f4d4 e93d 1947 b43c ddd5 5abd 7911 863d
00000220: 602d e73d 409a cc3d b7ca 03bd d5b2 c7bd
00000230: d404 0a3d 2acc 023d d72e 95bc 4ab1 b138
00000240: d2f6 a0bc 7e63 e33c 76ea 82bd 65e2 efba
00000250: 85a6 083d fed1 02bd 0d58 9a3d 822d e43d
00000260: ba52 263d 23ea d03d e306 56bd b895 d43d
00000270: 9a13 8f3d a11e febd 1956 c8bd 9a72 f9bd
00000280: 93e7 84bb e3eb ce3d 141c bcbd db72 563b
00000290: 6d74 1c3d 9411 443d 149e 34bd f561 a1bd
000002a0: 59e2 9fbd 95f2 383d 2638 9e3d fd42 a23d
000002b0: bd89 f1bd 608f cebb a00c 0cbe 2998 00bd
000002c0: 2d2b ad3c 6343 d1bd ea17 053d ac37 df3d
000002d0: c4cc 71bd a458 e6bd fb84 253d d0cb 25bd
000002e0: 96ee 8ebd a86a a0bd af12 58bb b463 bb3d
000002f0: 0710 38bd 5734 f23d 888a d03d aa38 813d
00000300: 7ce2 03be 007d 483d a170 84bb 4833 d6bd
00000310: aa18 373c 1e6e f93d efed 20bc b50a 353d
00000320: 4fdb b3bd 1366 76bd 8baf a83d 79b2 923c
00000330: 6925 f13d fb70 2dbd c4a0 a43d 43b8 b2bd
00000340: 2eff e2bc 22e0 153d 7e87 68bd d88b ad3a
00000350: 7d75 aabd 7162 95bd 5918 3a3d e492 fcbd
00000360: a08a bf3c 88c1 94bc 83c1 49bd c2b4 debc
00000370: 1432 a2bd 01b1 cbbd 1ab5 b73c b376 8d3d
00000380: 0fd1 fc3c 791c e93c e179 9cbc 93dc c63c
00000390: 1ae9 e33d 8bec e13d ddb6 3a3d 651a dabc
000003a0: df27 333d f8c1 83bd d880 b53d 797e a43d
000003b0: 33a0 353d 8b4c 76bd 27a4 69bd e2d2 ef3d
000003c0: 2dd3 d3bd bbf1 e03d f643 d8ba 5638 333d
000003d0: a07c c5bc 48cd eabd 2c3d efbd a58e 69bd
000003e0: 2d79 dc3d 223d 813d 807c 92bd fa28 79bd
000003f0: d9dc c03d a51a 833d e67f 1abd 5698 a93d
0.0038758551 -0.005240393 -0.050916597 0.030912137 0.013068097 -0.03157821 -0.061630473 -0.042986404
-0.09579334 0.05984279 -0.013850385 0.08753747 0.015140396 -0.023326755 -0.06250806 -0.10652542
0.10951931 0.052905425 -0.088774964 0.06843361 -0.04787047 0.012140479 0.1122949 0.07130289
-0.012405702 -0.010415119 -0.0721046 0.09930293 0.08614181 -0.009710409 0.0784609 -0.06258481
0.12439728 0.058935814 -0.079043016 -0.10999418 0.025338411 -0.060690843 -0.068043165 0.09241397
-0.063460656 0.020733565 -0.118877746 0.019890266 -0.02317592 0.08338581 0.02400145 -0.09486109
-0.004075957 0.08183041 0.0015869585 0.015307767 -0.10043572 -0.109898195 0.04259749 -0.04507139
-0.11666159 -0.06299528 -0.009190345 0.077515475 0.10895057 -0.06555533 0.099518016 -0.027900338
0.08234125 -0.014858296 0.116799824 -0.0380937 0.025513725 0.012493803 -0.058590826 0.008878822
0.002812267 -0.08509991 -0.10525982 -0.08519454 -0.00059078843 -0.056483116 0.0975176 -0.04502039
0.07384838 0.03357045 -0.028021876 -0.017686546 -0.054691833 0.06472249 0.05769956 0.07992475
0.10397775 -0.08203648 -0.10090434 0.055863105 -0.008634857 -0.059992384 -0.025941497 0.09444795
-0.085958496 0.008586084 -0.012612538 0.11522449 0.04765322 0.11965172 0.120118424 -0.08664746
0.09343052 -0.037623238 0.08751733 -0.04789801 -0.05899237 -0.097619474 -0.06622083 -0.007021036
0.043542817 -0.008510145 0.061826546 -0.072194465 -0.04642479 0.07503366 0.041035756 -0.09946425
0.070752755 0.121683694 -0.1048391 -0.0378159 -0.068567835 0.040759824 -0.061982732 -0.0864196
-0.024891702 0.049868524 -0.09071623 0.122069806 0.11417571 0.022006558 -0.053426612 0.065463014
0.112879515 0.09990358 -0.032175746 -0.097509064 0.03369601 0.031932987 -0.018210812 8.47304e-05
-0.019648943 0.027757403 -0.06392376 -0.0018301724 0.03336193 -0.031938545 0.075363256 0.111414924
0.040606238 0.10200908 -0.05225266 0.10380119 0.069861606 -0.12408186 -0.09782047 -0.12180062
-0.004055926 0.101035856 -0.09185043 0.0032722268 0.03819697 0.047868326 -0.044096068 -0.07880012
-0.07806844 0.04515322 0.07725553 0.07922933 -0.117938496 -0.0063037127 -0.13676691 -0.03139511
0.021138752 -0.10217931 0.03249351 0.108992904 -0.05903317 -0.112473756 0.040410023 -0.040477574
-0.069791004 -0.07832843 -0.003297012 0.09149876 -0.04493716 0.11826389 0.10182673 0.06309636
-0.12879366 0.048947334 -0.0040417467 -0.10459 0.011175314 0.12179206 -0.009822353 0.044199664
-0.08782064 -0.06015594 0.08236607 0.017907368 0.117747135 -0.042344075 0.08038476 -0.087265514
-0.02770957 0.036590703 -0.05676984 0.0013240529 -0.0832319 -0.07294167 0.045433376 -0.12332705
0.023381531 -0.01815869 -0.049256813 -0.027185801 -0.07919708 -0.0994587 0.022425223 0.06907406
0.030861406 0.02845596 -0.019101085 0.0242751 0.11128445 0.11031445 0.04558455 -0.026623914
0.043739196 -0.06433481 0.088624656 0.08031935 0.04434223 -0.06013159 -0.057041313 0.117101446
-0.10343013 0.109836064 -0.0016499746 0.043754898 -0.024107277 -0.114649355 -0.116815895 -0.057020802
0.107653 0.06310488 -0.07152653 -0.060830094 0.09417123 0.064015664 -0.03771963 0.08281009

onnx::LSTM_97 f4 [1, 256, 64]
00000000: af83 463c 15aa 3abd 91f5 16bd 3c5a 97bd
00000010: 6165 cf3d df36 9dbc 8811 f7bc 2a00 4ebd
00000020: 5557 e8bc b8cd 54bc 619f e0bd 95c6 153d
00000030: 9ab6 b9bd e82f da3d 79fa fdbd f089 c83d
00000040: 4e56 20bc b261 003e 2641 fdbc 0165 12bd
00000050: 6b53 72bd 5fc0 91bd c1fa bb3d 2cdb 51bd
00000060: f339 6ebd 4efd b13c e329 973b 6fd7 91bc
00000070: 5cf8 34bd 3c7e 313c ad58 84bd b04a 87bd
00000080: 6c26 07bd 4729 5dbd aad2 9c3d e393 b4bb
00000090: 1aa6 0abb 4344 593d e081 e33d 020c ba3d
000000a0: 0adf ae3d ba1c 773d 64d2 b8bd fc9b 8b3d
000000b0: a35f dc3d 692a eb3d c6ce d13b be0d 843b
000000c0: c45d ab3d 0e55 93bd bfed a23c 1c4e 58bd
000000d0: 8598 aebb 20f2 05be d64a a9bd 7695 aebc
000000e0: b985 07bd c910 54bd 3cd1 b3bd 977a f4bc
000000f0: 6e79 e63c 0381 a8bd 105f 3fbd 0348 6f3d
00000100: 6fba f7bd 0d09 dbbd acdd b5bd 0dc0 debd
00000110: e6a8 96bd a839 dd3c 9388 90bd 0ba3 8abc
00000120: 96f0 4f3d 6038 893a 0462 763d 42ae 033d
00000130: ee06 8f3c 34b8 f4bd 680a 8e3d 9d99 d63d
00000140: b496 a5bd 3675 633d 844f 293d c0bd ce3d
00000150: e602 9f3d 98fe 83bd eb06 b1bd 9222 92bd
00000160: 0fa6 873d a078 7a3d 7f0f 1ebc 0059 9fbd
00000170: b5e3 cfbd d9e0 073e c767 8abd d823 bc3d
00000180: 3502 b0bd 5895 953c 338c e03d 9173 673d
00000190: 9780 d53d 927d 44bd c8f6 fe3d 6f5c 9cbd
000001a0: c4b9 c93d 5d11 423d 3994 d03d 8d1f 673d
000001b0: 405e f9bd 9a3a 82bd eab0 d9bd 6573 57bd
000001c0: ff8b 3d39 a365 23bd d236 6e3d d461 a73d
000001d0: 11a1 43bc 1efc e73d c574 643d 7d75 fcbd
000001e0: e927 b0bd c55b 31bb 5ba6 cdbc 208e 9ebd
000001f0: 745e 7ebc 1cba 8e3d c3bd 8cbd afeb fcbd
00000200: 0204 ab3d 3044 4ebd b663 97bd e942 3ebd
00000210: fffa 38bd c4f7 c23d c599 ec3d 7b9e e5bd
00000220: 1a71 9d3d 6416 703d ee7b c83d d9bb 813d
00000230: f007 c13d 3474 8bbc e8de c03d 4d18 15bd
00000240: 5559 113d c1a7 533d 738e 013e 9dc3 963d
00000250: 7554 193c c9eb c9bd 62e2 ccbd 2a01 803c
00000260: 5d0c 1dbd 5f9c febd 64f2 dbbd 6b6e e2bd
00000270: e20a 8dbd 6213 68bd 2a4a 393d f7f9 303c
00000280: 6b3f bcbd 3cb9 2fbc ac3d 0a3d 327e e93d
00000290: 2e6d 31bd 81ed 0fbd 3841 f93d 289e 90bd
000002a0: c7cf 0bbc cca5 44bc 15ad 963c ffd6 c7bd
000002b0: 82fc 0abd 859c 843d cc97 d2bd 3ed4 d63d
000002c0: 2197 873d f098 e63d 68b5 e8bd 11f1 73bd
000002d0: d636 e93d 1970 c2bd 2284 bbbd 903b 05be
000002e0: 996e f83d d77c 1abc 4582 0e3d b02e ca3d
000002f0: 5f61 ddbb 25b9 eebd 69d8 b3bd 2bc8 1bbd
00000300: da27 80bd facd ac3c d7fb 59bb 088d afbd
00000310: 927e 043d 4df7 61bc 1524 943d b79c b4bc
00000320: 42cd 8cbc 0b2d 7e3d f79b 8f3d b18e a63d
00000330: 1e5a a23d 7e89 efbd 0ac3 87bd f77d 243c
00000340: b277 2cbc a09c bb3d aa91 dfbd 7df2 be3d
00000350: cdf4 d03d 5794 903c c3cb 733c 0349 f03d
00000360: d7d3 44bd 3bbf e73c e5f2 ef3d f397 953c
00000370: 50d8 a63c c8b1 c43d 281d fd3d 96f8 f53b
00000380: c42e 973d 587d 2dbd a435 04bd b204 cd3c
00000390: 0838 793d a576 663d fda4 9c3d 84f6 9d3b
000003a0: 8308 4d3d 8a65 94bd 9a53 c6bc 2db9 c5bd
000003b0: be73 0bbd 418d 03bd b106 0abd a12b 9bbd
000003c0: f355 c1bc 3e3a c6bc ffcd 403d 8afe 3ebc
000003d0: 8250 083d e0ff 443d 6c8c 8dbc 6019 2e3b
000003e0: 976e babd e33a 38bd b6e1 1cbd ea50 293d
000003f0: 78e7 023e de70 87bd fde5 063e a689 0b3d
0.012116357 -0.04557236 -0.036855284 -0.07390258 0.10126758 -0.019191204 -0.030159727 -0.050293125
-0.028361956 -0.0129885 -0.10967899 0.036566336 -0.090680316 0.10653669 -0.124012895 0.097919345
-0.009786202 0.12537268 -0.030914854 -0.035740856 -0.059161585 -0.0711677 0.09178687 -0.05123441
-0.058160733 0.02172723 0.0046131476 -0.017802922 -0.044182166 0.010833319 -0.06462226 -0.066060424
-0.032995626 -0.053994443 0.076573685 -0.0055107935 -0.0021156133 0.053043615 0.11108756 0.090843216
0.08538635 0.06033013 -0.09024504 0.06816861 0.10760429 0.114826985 0.006402823 0.0040299585
0.08367494 -0.07193957 0.019888757 -0.052808866 -0.0053282403 -0.13080645 -0.08266227 -0.021311503
-0.033086512 -0.05177382 -0.08780143 -0.029843612 0.028134074 -0.08227732 -0.046721518 0.058418285
-0.12096106 -0.10695086 -0.08880171 -0.108764745 -0.073564336 0.027005032 -0.070572995 -0.016923448
0.05076655 0.0010469072 0.06015207 0.032148607 0.017459359 -0.119491965 0.069355786 0.10478518
-0.08085385 0.055531703 0.041335598 0.10094786 0.07764225 -0.06445044 -0.086438976 -0.071355
0.0662347 0.061150193 -0.009647249 -0.07780647 -0.101508535 0.13269366 -0.06758075 0.09186524
-0.08594171 0.01825969 0.10964241 0.056506697 0.10424917 -0.047971316 0.124494135 -0.07634818
0.09849885 0.04737984 0.10184521 0.056426574 -0.1217618 -0.063588336 -0.10629447 -0.052600283
0.00018076597 -0.03989185 0.05815775 0.08172956 -0.011940257 0.113273844 0.055775423 -0.123270966
-0.08601362 -0.0027062756 -0.025103739 -0.07741952 -0.015525449 0.06969091 -0.06872132 -0.123496406
0.08350374 -0.050357997 -0.07392065 -0.04645053 -0.045161244 0.09519914 0.11552767 -0.112118684
0.07687588 0.058615103 0.09789263 0.06334657 0.09425342 -0.017023183 0.09417516 -0.03640013
0.035485584 0.051673654 0.12651996 0.07361529 0.009358515 -0.098594256 -0.100041166 0.015625555
-0.03834187 -0.12432169 -0.10739592 -0.11056217 -0.06886841 -0.05665911 0.045236744 0.010801784
-0.091917835 -0.010725316 0.03375022 0.11401023 -0.043317012 -0.03513861 0.121706426 -0.07061416
-0.008533425 -0.01200242 0.018393079 -0.09757804 -0.033932216 0.06475166 -0.10282859 0.10489701
0.066206224 0.11259639 -0.113627255 -0.05955607 0.11387412 -0.09494037 -0.09156062 -0.13011003
0.1213047 -0.009429178 0.034792203 0.09872186 -0.0067559923 -0.11656407 -0.08781511 -0.038032692
-0.06257601 0.021094311 -0.003326168 -0.085718215 0.03234727 -0.013791871 0.072334446 -0.022047384
-0.017187718 0.062054675 0.0701217 0.08132685 0.07927345 -0.116961464 -0.066289976 0.010039798
-0.010526584 0.09160733 -0.10916455 0.09323595 0.10202942 0.017648859 0.014880124 0.11732676
-0.04805359 0.028289428 0.1171625 0.018260932 0.020366818 0.096042216 0.12359077 0.0075064404
0.07381967 -0.042355865 -0.03227772 0.025026653 0.06084445 0.056265492 0.076486565 0.0048206467
0.050056946 -0.072459295 -0.024209786 -0.0965446 -0.034045927 -0.032117132 -0.033697788 -0.07576681
-0.023600554 -0.024197694 0.047071453 -0.0116573665 0.033279903 0.048095584 -0.017278872 0.0026565418
-0.091031246 -0.044978034 -0.038301192 0.04133693 0.12783611 -0.066133246 0.13173671 0.03406682

onnx::LSTM_98 f4 [1, 512]
00000000: 9713 8f3d 928a f9bd f5a7 e5bd effb 6b3c
00000010: 7fe5 05be 063c b23d 9580 ecbd 20b7 53bd
00000020: aa82 01be 721b b6bd b571 34bc f4b6 c13d
00000030: e136 b93d a699 68bd 6a0b 87bc a157 763d
00000040: 1e49 e2bd 091d f33c ea85 d2bd c088 64bd
00000050: b9e8 0dbd 7a61 cc3d 6713 5dbb 436b cfbd
00000060: 05b8 0cbd 7eaf edbd 5031 98bd ecb8 0bbd
00000070: b6e2 d83d 2e35 e1bd 41c6 d7bd 0c54 e23d
00000080: 8bcc c83d 05da 8f3d ec5e 8fbd 789a 803d
00000090: a42c 42bb 16e2 783d 2131 afbd 6bcc bb3d
000000a0: be28 0a3d ba27 06be 13fe a8bd 612d e43d
000000b0: 4701 ad3d fb11 b4bd 22f4 4e3d 7781 1fbc
000000c0: b4ee 843c c931 fa3d 3758 40bd 9ede 163d
000000d0: 1a81 5ebd 58b2 133c 57e4 ab3c 7340 b7bd
000000e0: 0f65 33bd be22 8e3c 182c e63d 8d1f f2bd
000000f0: 36cb 703d 0bfe 55bc 17bd 11bd 7824 8b3d
00000100: 06b9 993d 4cae 64bc ab79 593d bbc6 08be
00000110: 0b09 02be 41a1 a73d 14a5 96bb bf2b a0bd
00000120: ae17 6a3d 719c a2bd 7d35 83bc 1fd9 d7bc
00000130: 083d f2bc 33a9 5bbd e872 303d d5da dd3d
00000140: a7bd e83d c0b2 513d 10ef 813d a4c6 93bd
00000150: b90d 983d e9af b3bd cd93 7f3c ef8f 613d
00000160: 90fc d23b 65bd d6bc 80d3 e03d 8e71 05be
00000170: fdf9 60bd e57f 6cbd e7e3 6dbc e6a7 833c
00000180: 6544 983d a647 d63d b3fa 01be e925 d03d
00000190: 16c5 a4bd 683b 84bc cdc5 ce3c e8fc b93d
000001a0: 710d e33c 9631 433d 8387 43bc e654 d1bd
000001b0: 6997 7bbd fce8 6dbd bc1c 553d 7b12 ae3c
000001c0: 83c2 4fbd fd67 623c 949a a63d 884c 3abd
000001d0: 7f87 06be a18d afbd a8ba c4bd bc9b 03be
000001e0: b5e0 d2bd 6fef f3bc ea19 b43d 8561 213d
000001f0: 0768 09bc 0aee a8bd 4884 79bd 5b7f 493d
00000200: 9b23 8bbd 75b1 e03d 5b44 a13c 021c af3d
00000210: 13c6 2e3d 3f13 4b3d 222d 983b c1c8 dabd
00000220: fc0c febd e29f d13d e81f f3bd fd4e ebbc
00000230: d4d7 013e cde3 4fbd a35d 60bc 711b 453d
00000240: a5e9 d43d 3b45 a9ba f250 bf3d bb96 e53d
00000250: 94a5 f2bd a1c8 f7bc 4d69 cd3a a06a 5abd
00000260: 25ea 3e3c 8228 e5bd 3a85 afbd aa97 e1bd
00000270: 371f 9d3d 0280 6ebd a034 e0bd f582 ed3d
00000280: e8fd 03be b9c4 39bd 7efc cbbd bb8d bd3d
00000290: 7935 313d acf0 d4bd 0f17 f53c 5da2 783d
000002a0: bea8 b3bd 2d18 243c 4893 193d 4028 74bd
000002b0: 97a9 93bc f0e5 dbbd 4707 92bc 0631 e4bd
000002c0: 0b22 30bc 12d8 e53c 1238 4a3d 48a2 6c3d
000002d0: ad96 e73d 96ce 76bd c1b8 0bb9 e7b1 543d
000002e0: 8016 d23d e0d3 3fbd db33 b83b 7aaf 2c3d
000002f0: 2434 003e fc22 a43d 2760 42bd ea8b dd3c
00000300: c054 02be dbb1 edbd fef8 54bd e8f9 70bd
00000310: 4763 20bd 0fca 1dbd c5cf 5c3d 4c50 d83d
00000320: 5d39 8ebd 688a 073e fc2f a0bd e4fb 3dbd
00000330: 27b0 c53d cfc0 26bd bb8e de3d 0742 10bd
00000340: 0812 cdbd 50f9 abbd 033d df3d dc68 8c3d
00000350: d7d6 cc3c 84d2 18bd fcff 9abd 5be5 033d
00000360: 3111 b03d c4eb 3a3c 60e5 bcbd c7bc f2bc
00000370: 3292 9ebd 6795 a3bd 0f59 9ebc 764f 13bd
00000380: d311 d8bd ede3 c23d b8ac e9bc 1130 8a3d
00000390: 1c4b abbd a733 66bd b9bd d53d c2d5 8c3c
000003a0: 5c4e 86bd f6e5 9ebd b666 053e 00b0 f1bd
000003b0: 23d1 dcbd 4a4e a9bd f274 d73b b8d7 36bd
000003c0: 43b9 cabd d880 cf3d 5246 33bd 3d52 f9bd
000003d0: 19fa b93d 6a83 763b 8397 60bd 20f4 8b3d
000003e0: 112c da3d b67f de3d 4539 afbc 481d c73c
000003f0: 034d 29bd d852 eabd 836b c6bc 9ca9 dabd
0.06986158 -0.12184633 -0.11213676 0.014403327 -0.13075827 0.08702855 -0.115479626 -0.051688313
-0.126475 -0.088919535 -0.011013438 0.09458724 0.090436704 -0.056787156 -0.016484935 0.060142163
-0.11049102 0.029676931 -0.10279448 -0.055794477 -0.03464577 0.0997953 -0.0033733489 -0.101278804
-0.034355182 -0.11605738 -0.074312806 -0.034111902 0.10590117 -0.10996471 -0.10535861 0.11051187
0.098046385 0.07024006 -0.07000527 0.062794626 -0.0029628659 0.060762487 -0.085542925 0.09169849
0.03373026 -0.13101092 -0.08251586 0.11141468 0.08447509 -0.08792492 0.050525792 -0.009735457
0.016227104 0.12216527 -0.04695913 0.036833398 -0.05432234 0.009014688 0.020982904 -0.089478396
-0.04379755 0.01735055 0.11238879 -0.11822424 0.058787547 -0.013061057 -0.03558072 0.06794065
0.075059935 -0.013957571 0.053094547 -0.1335706 -0.12698762 0.081850536 -0.0045973156 -0.07820844
0.05715149 -0.07939995 -0.016016716 -0.026348649 -0.029570118 -0.053628158 0.043078333 0.108327545
0.11364298 0.05119586 0.06344426 -0.07215622 0.074244924 -0.087737866 0.015599203 0.055068906
0.006438799 -0.026213357 0.109778404 -0.13031599 -0.054925907 -0.057739157 -0.014519668 0.016071271
0.0743492 0.104628846 -0.1269329 0.10163481 -0.08045404 -0.016141608 0.025240803 0.09081441
0.02771637 0.04765471 -0.011934164 -0.10221271 -0.061423693 -0.05808352 0.052029356 0.021249047
-0.05072261 0.013818738 0.08134952 -0.045483142 -0.13137625 -0.085719354 -0.09605914 -0.12852377
-0.10296766 -0.029777257 0.08794005 0.039399642 -0.008386618 -0.08248527 -0.06091717 0.04919372
-0.067939006 0.10971347 0.019685915 0.08550264 0.042669367 0.0495789 0.004644052 -0.10682822
-0.1240482 0.10235573 -0.1187132 -0.028724188 0.12679988 -0.050754357 -0.0136942 0.048121873
0.10396127 -0.0012914309 0.09341611 0.1121039 -0.11847988 -0.030247035 0.0015671641 -0.05332434
0.011652504 -0.11189367 -0.08570333 -0.11015256 0.076719694 -0.058227547 -0.109475374 0.11597244
-0.12889826 -0.045353625 -0.099602684 0.092555486 0.043263886 -0.10397467 0.029918222 0.060701717
-0.087724194 0.01001553 0.037493974 -0.059608698 -0.018025203 -0.107372165 -0.017825736 -0.11142163
-0.010750304 0.028057132 0.04936988 0.05777195 0.11308036 -0.06025561 -0.00013324899 0.051927473
0.10258198 -0.04683292 0.005621416 0.042159535 0.1251989 0.08014485 -0.04745498 0.027044255
-0.12727642 -0.11606189 -0.05199527 -0.05883208 -0.03915718 -0.038522776 0.053909082 0.105621904
-0.06944535 0.13236392 -0.07821652 -0.0463828 0.09652739 -0.04071122 0.108670674 -0.03521922
-0.10013205 -0.08397162 0.10900309 0.06855938 0.025004787 -0.03731014 -0.075683564 0.032201152
0.08597029 0.01140875 -0.09223437 -0.029631032 -0.07742728 -0.079874806 -0.019329576 -0.03596445
-0.10550275 0.0951613 -0.028524742 0.06747449 -0.08363935 -0.056201603 0.10436577 0.017191771
-0.065579146 -0.07758705 0.13027462 -0.118011475 -0.10782077 -0.082668856 0.0065752203 -0.04463932
-0.09898617 0.10131997 -0.043768235 -0.12173889 0.090809055 0.003761495 -0.054831993 0.068336725
0.10652936 0.10864203 -0.021389613 0.024305955 -0.04133321 -0.114415824 -0.024221187 -0.10676882
