ml-models/improved_braking_lstm_model.onnx (onnx, 373420 bytes, 10 tensors)

fc1.weight f4 [64, 64]
0	0xbd98c4f1	-0.074594386
1	0x3d9caf89	0.07650668
2	0xbdee3c8d	-0.11632643
3	0xbae35713	-0.0017344676
4	0xbe064972	-0.13113955
5	0x3dd58f42	0.10427715
6	0x3d1ddb04	0.038538948
7	0xbe17bc3c	-0.148179
8	0x3d9fbb93	0.07799449
9	0x3de0b4ed	0.10972009
10	0x3d9c12c2	0.07620765
11	0x3d9d1309	0.07669646
12	0xbde08d5c	-0.10964462
13	0xbceff6a8	-0.02929242
14	0x3daca84e	0.08430539
15	0xbe00c6d1	-0.12575842
16	0xbe056c7d	-0.13029666
17	0x3dd51aed	0.10405526
18	0xbd50ce3d	-0.050977934
19	0xbd4b35af	-0.049611744
20	0xbdbd97e6	-0.09257488
21	0xbddae791	-0.10688699
22	0x3d904f7e	0.07046412
23	0xbd8b521d	-0.06802771
24	0x3e16acc1	0.14714338
25	0xbd15a4ec	-0.036534235
26	0xbe36122c	-0.1778037
27	0x3db97c80	0.090569496
28	0x3e142ccc	0.14470214
29	0x3ddd2481	0.10797978
30	0x3da85ea0	0.08221173
31	0xbd1151af	-0.03547829
32	0xbc7db763	-0.015485617
33	0x3e3ed876	0.18637261
34	0xbdf28d08	-0.11843306
35	0x3e1bdc6c	0.15220803
36	0xbdec6fc4	-0.11544755
37	0x3cd47490	0.025934488
38	0xbe2e824d	-0.17041893
39	0xbde466f6	-0.11152451
40	0xbcceea78	-0.025258288
41	0x3d366529	0.044530068
42	0x3dbd873c	0.092543095
43	0xbc551ffd	-0.013008115
44	0x3ca6338c	0.020288251
45	0xbda2c611	-0.079479344
46	0xbe2702b8	-0.16309631
47	0x3dfd80a2	0.123780504
48	0xbda17966	-0.07884483
49	0x3dba1a5b	0.09087058
50	0xbc0bb59b	-0.008527185
51	0xbe27aa6d	-0.16373606
52	0x3d8bd5bc	0.06827876
53	0xbc91599b	-0.017742923
54	0xbc4ed9c2	-0.01262516
55	0xbde78b01	-0.1130581
56	0x3d6d68f4	0.05796142
57	0x3d609a75	0.0548348
58	0xbdd18fef	-0.10232531
59	0xbd8f14de	-0.06986402
60	0xbd8718bf	-0.06596517
61	0x3da08ada	0.07838984
62	0x3d5d2542	0.05399061
63	0xbcfa0124	-0.030518122
64	0x3d897301	0.067113884
65	0xbdb1b1a3	-0.0867646
66	0x3df3bc01	0.11901093
67	0x3d344ca4	0.044018403
68	0x3e3020c8	0.17200005
69	0xbc979aa9	-0.018506365
70	0x3e2c9e10	0.16857171
71	0xb8ac7d20	-8.2249055e-05
72	0xbde5fb41	-0.112295635
73	0xbdcdf427	-0.10056334
74	0xbd5b9934	-0.053612903
75	0xbd863c3c	-0.065544575
76	0x3e113835	0.14181598
77	0xbe2ffa7e	-0.17185399
78	0xbc90a24e	-0.017655518
79	0x3dcbbd94	0.099482685
80	0x3dde4b28	0.10854179
81	0xbd137cd7	-0.03600773
82	0x3d28647d	0.041111458
83	0xbda2c4b6	-0.07947676
84	0xbc0e4d1c	-0.0086853765
85	0x3dac9a9d	0.08427928
86	0x3e259899	0.16171493
87	0x3e09d892	0.13461521
88	0xbe102524	-0.14076668
89	0x3df56c33	0.11983528
90	0x3e001f36	0.12511906
91	0xbccb2655	-0.024798552
92	0xbe195f38	-0.1497773
93	0xbde9d027	-0.11416655
94	0x3bdb95c1	0.0067012017
95	0xbdf7a260	-0.120915174
96	0xbda94aa2	-0.08266188
97	0x3cc883e7	0.024476958
98	0x3d8444c2	0.06458427
99	0xbdc65d09	-0.09685714
100	0x3cd40854	0.025882877
101	0xbd153547	-0.036427762
102	0x3e1b74a6	0.15181217
103	0xbd16c0b6	-0.036804877
104	0x3d67fe56	0.056639038
105	0xbe118f09	-0.1421472
106	0xbe16c66d	-0.14724131
107	0xbe28b7bf	-0.16476344
108	0xbd8446c9	-0.06458814
109	0x3d3de7f1	0.046363775
110	0xbd69a4b4	-0.05704184
111	0xbe083dc1	-0.13304807
112	0x3e2715d3	0.16316919
113	0x3e1bcdc5	0.15215214
114	0x3c43e54e	0.011956526
115	0x3b28e5f8	0.0025771838
116	0x3c5da262	0.013527485
117	0x3db596c7	0.08866649
118	0xbdae729f	-0.08517956
119	0xbc81acb6	-0.015829425
120	0xbcc7ff3b	-0.024413696
121	0xbd678f8f	-0.056533393
122	0x3d108a1e	0.03528797
123	0x3d9f9601	0.07792283
124	0xbdb35db5	-0.087581076
125	0xbe2985d4	-0.16554958
126	0xbd8717be	-0.06596325
127	0xbd23148b	-0.039814513
128	0x3cb9a42d	0.022661293
129	0xbe06b6d1	-0.13155676
130	0xbd736427	-0.059421685
131	0x3dc77134	0.09738389
132	0x3e1398e9	0.144138
133	0x3c8bed93	0.017081058
134	0x3e108f97	0.14117275
135	0x3cd6ef4a	0.026237149
136	0xbe03ee67	-0.12883912
137	0xbdc09bac	-0.09404692
138	0xbe25f018	-0.1620487
139	0x3da07374	0.07834521
140	0x3d0a0de8	0.03370467
141	0xbe1c01a0	-0.15234995
142	0x3de2485c	0.11048958
143	0xbd178f7d	-0.037002075
144	0x3e23c68f	0.15993713
145	0x3aa99a7e	0.0012939719
146	0x3df8544b	0.121254526
147	0xbd1cdd29	-0.038296852
148	0x3b4c9dbe	0.0031221951
149	0x3dab6767	0.08369332
150	0x3c20fcc1	0.009825886
151	0x3e099cd5	0.13438733
152	0xbdb05bcb	-0.08611258
153	0x3e2ba840	0.16763401
154	0x3da6e1e5	0.08148555
155	0xbd5565e5	-0.052099127
156	0xbdf462b0	-0.11932886
157	0xbd8dda87	-0.069264464
158	0xbe3be657	-0.18349586
159	0xbdac5b2b	-0.084158264
160	0xbcdef2d6	-0.027215403
161	0xbd378f3b	-0.04481433
162	0x3e250b2e	0.16117546
163	0xbddab282	-0.10678579
164	0x3de1d728	0.11027366
165	0xbdb3ace7	-0.08773213
166	0x3d37e44b	0.04489545
167	0xbd4827eb	-0.048866194
168	0xbce2f8bd	-0.027706498
169	0xbcb73082	-0.022361998
170	0xbcef9566	-0.029246043
171	0x3cb0e5f9	0.021594035
172	0xbe0bd9c6	-0.13657293
173	0x3e0375fd	0.12837978
174	0x3e03eea0	0.12883997
175	0xbe34a763	-0.17641978
176	0x3e0fea97	0.14054333
177	0x3dfa6d7d	0.122279145
178	0xbd84a8f0	-0.06477535
179	0x3b775037	0.003773702
180	0xbe30f034	-0.1727913
181	0x3cc81479	0.024423825
182	0x3b1693e9	0.0022976345
183	0xbcdf1411	-0.027231248
184	0xbe04bbc0	-0.12962246
185	0x3a2941db	0.00064566516
186	0xbd0efcce	-0.034909062
187	0x3dd111e4	0.102084905
188	0xbd21cf7c	-0.039504513
189	0xbe281cf0	-0.16417289
190	0xbd9a5f86	-0.07537751
191	0x3e052203	0.13001256
192	0x3db93b33	0.090444945
193	0xbe1c6828	-0.15274107
194	0x3bf311d8	0.0074178986
195	0x3e196716	0.1498073
196	0x3ddab0e7	0.10678273
197	0x3c6628b3	0.014047789
198	0x3e162754	0.1466344
199	0x3dda1569	0.10648615
200	0xbde4ac20	-0.11165643
201	0xbd55a0b4	-0.05215521
202	0x3c9344b3	0.017977094
203	0xbd5e14df	-0.054219123
204	0xbba397b8	-0.0049924515
205	0xbd1a8985	-0.037728805
206	0x3cbbd42a	0.022928316
207	0x3df9ddfb	0.122005425
208	0x3d133afc	0.035944924
209	0xbe23b0cf	-0.15985416
210	0x3e200bf0	0.15629554
211	0xbcff8e3a	-0.031195749
212	0x3bff883c	0.007798223
213	0x3d7dfdd9	0.062009666
214	0x3df00b56	0.11720912
215	0x3e3b3056	0.18280157
216	0xbd101631	-0.035177413
217	0x3cfb5bda	0.030683447
218	0x3db04f54	0.08608881
219	0xbcf068b1	-0.029346796
220	0xbe3168c1	-0.17325117
221	0xbe2e17f5	-0.17001326
222	0xbdee98f8	-0.1165027
223	0xbe26ebb9	-0.16300859
224	0x3d382628	0.044958264
225	0xbe124c0e	-0.14286825
226	0xbbecab89	-0.007222597
227	0xbd32fb11	-0.043696467
228	0x3d38d415	0.045124132
229	0xbe1df687	-0.15426074
230	0x3d8aedc4	0.067836314
231	0x3e02d417	0.12776218
232	0xbc45b3c2	-0.012066783
233	0xbd477985	-0.048699874
234	0xbdd86366	-0.10565834
235	0xbd8d01c8	-0.06885105
236	0xbd9b4ad2	-0.0758263
237	0x3dae6dec	0.0851706
238	0xbd34385e	-0.04399907
239	0xbd8f81c2	-0.07007171
240	0x3e0f9598	0.14021909
241	0x3dd9c2ff	0.10632896
242	0xbdaa5e84	-0.08318809
243	0x3e24df09	0.16100706
244	0xbe2be9eb	-0.16788451
245	0x3c5006b9	0.012696915
246	0x3c1f5728	0.0097253695
247	0x3d0eabaa	0.03483168
248	0xbd090bea	-0.033458628
249	0x3d775e5e	0.06039273
250	0xbdd16ef0	-0.10226238
251	0x3d231aad	0.039820362
252	0xbe28e24d	-0.16492577
253	0xbe34075d	-0.17580934
254	0xbe219459	-0.15779246
255	0x3df32561	0.11872364

fc1.bias f4 [64]
0	0x3daa6bc1	0.08321334
1	0x3e1b32cf	0.151561
2	0x3d783625	0.06059851
3	0x3e0cd4cf	0.13753055
4	0x3dac6576	0.0841779
5	0x3d1168f7	0.035500493
6	0xbd5d32e7	-0.054003622
7	0x3d7fb13d	0.062424887
8	0x3e2d3a9d	0.1691689
9	0x3e14b7e0	0.14523268
10	0x3d8ba023	0.06817653
11	0x3e1f7797	0.15572964
12	0xbcf1a9a9	-0.029499846
13	0x3dee5905	0.11638073
14	0xbdef1d5e	-0.11675523
15	0xbdf0afac	-0.11752257
16	0xbd83d939	-0.06437916
17	0xbbc390f2	-0.0059682066
18	0xbd2bac22	-0.041912206
19	0x3df59886	0.11991982
20	0x3b28fdb2	0.002578598
21	0x3e0aa43b	0.13539211
22	0x3e2ac648	0.16677201
23	0xbdf407ee	-0.11915575
24	0x3e112d3f	0.14177416
25	0xbd410f84	-0.047133937
26	0x3d17d9ca	0.037072934
27	0x3d54f051	0.051986996
28	0xbdbf211e	-0.093324885
29	0x3e0f5012	0.13995388
30	0x3dfe07e3	0.12403848
31	0xbddb15ec	-0.10697541
32	0x3dbbfdf1	0.09179295
33	0xbdbf7fb9	-0.09350533
34	0xbdf5cf20	-0.120023966
35	0x3d89b75f	0.067244284
36	0x3c8058d2	0.015667353
37	0xbde02c72	-0.10945977
38	0xbdb85952	-0.090014115
39	0xbdbd3258	-0.09238118
40	0x3dfbc582	0.12293531
41	0xbd554d8c	-0.052075908
42	0x3d905c1b	0.07048818
43	0x3de05706	0.109540984
44	0x3d331e6e	0.043730192
45	0x3da2aa99	0.07942695
46	0x3d1392ec	0.036028787
47	0x3dbf7895	0.09349171
48	0x3d9a8f75	0.075468935
49	0xbca52d35	-0.020163158
50	0x3e0b02ac	0.13575238
51	0x3e28f1f1	0.16498543
52	0xbd82124b	-0.06351145
53	0x3e018b38	0.12650764
54	0x3b355970	0.0027671717
55	0x3cebba11	0.028775247
56	0x3d5185b5	0.051152904
57	0x3dd01990	0.10161126
58	0xbcee0732	-0.029056165
59	0xbdee28ae	-0.11628853
60	0x3ddca50b	0.10773667
61	0x3e01b1ce	0.12665483
62	0x3e064712	0.13113049
63	0x3d4cf976	0.050042592

fc2.weight f4 [2, 64]
0	0x3d8f4b6c	0.069968075
1	0xbd069a88	-0.032862216
2	0xbe0b5aa7	-0.136088
3	0xbdd21670	-0.10258186
4	0x3db9824c	0.09058055
5	0x3e153c27	0.14573728
6	0xbd8f7456	-0.07004611
7	0xbe3f59bc	-0.18686575
8	0x3c05e88f	0.008173122
9	0xbcc3727a	-0.023858298
10	0x3e1d1fe7	0.15344201
11	0xbe189836	-0.14901814
12	0xbcbd9dd0	-0.02314654
13	0xbc96f4eb	-0.018427333
14	0xbdd6d3b0	-0.10489595
15	0xbce8cd9a	-0.028418351
16	0xbc8325b1	-0.016009184
17	0xbdd05b66	-0.10173683
18	0x3d922ba0	0.07137227
19	0xbd6e8990	-0.05823666
20	0x3e151b0a	0.14561096
21	0xbd9f8d41	-0.07790614
22	0xbddceed1	-0.10787738
23	0xbdb90bb8	-0.09035438
24	0xbe18a668	-0.14907229
25	0x3ca28948	0.019840851
26	0xbe3f9d5f	-0.18712376
27	0x3e1e6db9	0.15471543
28	0xbd95ae8e	-0.07308684
29	0xbd3f757b	-0.046742897
30	0xbe0ac5bc	-0.13551992
31	0xbcb410c8	-0.021980658
32	0xbe0ec8e7	-0.13943826
33	0x3d306b0b	0.043070834
34	0xbd774794	-0.060370997
35	0x3c685c9d	0.014182237
36	0xbca03fce	-0.019561674
37	0xbc3309e0	-0.010927647
38	0xbd89bf68	-0.06725961
39	0x3dbe5742	0.09293987
40	0xbdd85d6b	-0.10564693
41	0xbd0c4542	-0.034245737
42	0x3bf23a8b	0.007392233
43	0xbdeaf312	-0.11472143
44	0x3d312654	0.043249443
45	0xbe153ebd	-0.14574714
46	0x3da3e95d	0.08003495
47	0xbe330ae3	-0.17484622
48	0xbd99ab53	-0.075033806
49	0xbcb972db	-0.022637775
50	0xbe0f65eb	-0.14003722
51	0xbd586634	-0.052831843
52	0xbd0c7400	-0.034290314
53	0x3d8cb310	0.06870091
54	0xbd35a197	-0.044343557
55	0x3d944a7d	0.0724077
56	0xbe2d239f	-0.1690812
57	0xbd5da345	-0.054110784
58	0xbdd2f3ad	-0.10300384
59	0xbdc68916	-0.09694116
60	0xbd350be4	-0.044200793
61	0x3d5ded9a	0.054181673
62	0xbdf3542d	-0.1188129
63	0xbdce3914	-0.100694805
64	0xbddbfffa	-0.10742183
65	0x3e2b14cf	0.16707157
66	0x3d3fdb36	0.046839915
67	0x3de7107c	0.11282441
68	0xbd4f3db2	-0.050595947
69	0xbe1bf4c0	-0.15230083
70	0x3bab7b96	0.0052332385
71	0x3dfdf64f	0.12400495
72	0x3e0101c4	0.1259833
73	0x3e281352	0.1641362
74	0xbcdcaa1b	-0.026936581
75	0xbd235037	-0.03987142
76	0xbd99401e	-0.074829325
77	0x3ddf189a	0.10893364
78	0xbddd6034	-0.10809365
79	0xbdb5b25e	-0.088719115
80	0x3d134444	0.035953775
81	0xbdb88a1e	-0.09010719
82	0xbde90337	-0.11377566
83	0x3e12ff50	0.14355206
84	0x3d082b12	0.0332442
85	0x3de598ea	0.11210807
86	0x3dad6c59	0.08467931
87	0xbd4b5c98	-0.04964885
88	0xba9f3627	-0.0012146876
89	0xbd0b7794	-0.034049585
90	0x3d4d0b29	0.05005947
91	0xbde17d07	-0.11010175
92	0xbcb139a8	-0.021633938
93	0x3dbf766e	0.093487605
94	0xbc060fac	-0.008182447
95	0xbc786920	-0.0151617825
96	0x3e091d7b	0.13390152
97	0x3e06830e	0.13135931
98	0xbd3a7f98	-0.04553184
99	0x3e1e994b	0.15488164
100	0xbdc23cb5	-0.09484235
101	0x3dd4488a	0.10365398
102	0xbdfb6ccc	-0.12276611
103	0x3d505554	0.050862625
104	0x3e2d8f61	0.16949226
105	0xbe0d030d	-0.13770695
106	0x3d8f2b4d	0.06990681
107	0xbdb1300e	-0.08651744
108	0xbc8474d8	-0.016168997
109	0x3e29ee78	0.16594875
110	0xbdefbe27	-0.117061906
111	0xbaecdaba	-0.0018070557
112	0x3e09f251	0.13471343
113	0xbdbc81d2	-0.09204449
114	0x3dd110cb	0.10208281
115	0x3d563964	0.052300826
116	0xbd4c7f38	-0.049926013
117	0x3e270b05	0.16312797
118	0x3d849f31	0.06475676
119	0xbd0578d1	-0.032585923
120	0x3c629a31	0.013830707
121	0xbdd86dda	-0.105678275
122	0x3c5ad4b4	0.013356376
123	0xbd812a78	-0.063069284
124	0x3dbad778	0.09123129
125	0x3e12a4bf	0.14320658
126	0x3e2968f0	0.16543937
127	0x3ccba7f8	0.024860367

fc2.bias f4 [2]
0	0xbd5eb9f3	-0.054376554
1	0x3dd5967a	0.10429092

onnx::LSTM_282 f4 [2, 512]
0	0x3d868e2d	0.06570087
1	0x3d50a545	0.050938863
2	0xbcc8f21d	-0.024529511
3	0x3e467103	0.19379048
4	0x3cc8ceda	0.024512697
5	0x3daab2a5	0.08334855
6	0x3e2ed6f6	0.17074189
7	0x3dbb03c4	0.091315776
8	0x3e00e682	0.12587932
9	0x3e2deab2	0.1698406
10	0xbba1cac0	-0.0049374998
11	0x3e02fe5e	0.12792346
12	0x3e2bcde1	0.16777755
13	0x3e15457d	0.14577289
14	0x3e131650	0.1436398
15	0x3e166ef2	0.1469076
16	0x3d43f863	0.047844302
17	0x3d8c9b4e	0.068655595
18	0x3e0bf55a	0.13667813
19	0x3df79747	0.12089401
20	0x3e11c288	0.14234364
21	0xbc8f281d	-0.017475182
22	0x3dc8f193	0.098117016
23	0xbda972ce	-0.082738504
24	0xbb0195bc	-0.0019773087
25	0x3e0ecace	0.13944551
26	0x3e215dcf	0.15758441
27	0x3c3b1fda	0.011421168
28	0x3dcabc3b	0.09899183
29	0x3e29388e	0.1652548
30	0x3d404b59	0.046946857
31	0x3e1d361c	0.15352672
32	0xbcb8a70d	-0.022540594
33	0x3e2632c4	0.16230303
34	0x3d661e40	0.056181192
35	0x3e0b7e74	0.13622457
36	0x3d527c57	0.05138811
37	0xbc4286d6	-0.011872968
38	0x3beb45ef	0.0071799676
39	0xbd80c161	-0.06286884
40	0x3e053626	0.13008937
41	0xbb0a249c	-0.002107895
42	0x3e06762e	0.1313102
43	0x3db5b320	0.08872056
44	0x3e24b238	0.1608361
45	0x3d845106	0.064607665
46	0xbdaa341a	-0.08310719
47	0x3dcb590a	0.09929092
48	0x3dc8a97d	0.09797952
49	0x3e04e086	0.12976274
50	0x3e32a6d2	0.1744645
51	0x3d92c5bb	0.0716662
52	0x3bdcb243	0.0067351176
53	0xbc8f9300	-0.01752615
54	0xbcab8b5b	-0.020940473
55	0x3c4d0570	0.012513503
56	0x3d90bd72	0.07067384
57	0xbd104384	-0.035220638
58	0x3d463d91	0.048398558
59	0x3e4003dd	0.18751474
60	0x3d22f564	0.039784804
61	0x3b96899b	0.0045940406
62	0x3d339d70	0.043851316
63	0x3e3d7d31	0.18504788
64	0xbd865ddf	-0.06560873
65	0xbcf0cdf0	-0.029395074
66	0x3e19986f	0.14999555
67	0xbd4abd9d	-0.049497236
68	0x3e0df7a0	0.13863993
69	0xbd66946f	-0.0562939
70	0xbd42cefb	-0.047560673
71	0x3d98cd0a	0.07460983
72	0x3e18dbaf	0.14927553
73	0x3b9d0146	0.0047914116
74	0xbd2cddf0	-0.042203844
75	0xbcfe1481	-0.031015636
76	0x3c622453	0.013802606
77	0x3c8a3873	0.01687262
78	0x3db52f25	0.08846883
79	0x3dd21163	0.102572225
80	0xbc12f08a	-0.008968482
81	0xbcb1a6a5	-0.021685908
82	0xbd770803	-0.060310375
83	0xbd16994f	-0.0367673
84	0x3d823d48	0.06359345
85	0x3dc11a17	0.09428804
86	0x3c4836dd	0.012220112
87	0x3c1d30d2	0.009594159
88	0xbda3390c	-0.07969865
89	0x3dfb97cb	0.122848116
90	0x3da65a0a	0.08122642
91	0x3dd2eed1	0.10299457
92	0x3d5be156	0.053681694
93	0xbb8363a1	-0.0040096794
94	0x3e147ba4	0.1450029
95	0x3e311dd0	0.17296529
96	0x3dfb5c6f	0.1227349
97	0x3da0dd3a	0.078546956
98	0x3e26d5b6	0.16292462
99	0x3d2bc0e0	0.041931987
100	0x3b4711b4	0.0030375542
101	0x3dcbfc82	0.099602714
102	0x3d45d905	0.04830267
103	0x3d7abe74	0.061216787
104	0xbd2414e3	-0.04005898
105	0x3e27dc55	0.16392644
106	0x3c7ea9be	0.015543399
107	0xbd41981c	-0.047264203
108	0xbd834d66	-0.06411247
109	0xbd030683	-0.031988632
110	0xbdaafc6a	-0.083489254
111	0x3dbd5bd1	0.09246028
112	0x3d47f2f4	0.048815683
113	0xbd6762fb	-0.05649088
114	0xbd465355	-0.048419315
115	0x3c6d19cc	0.0144714825
116	0xbd1f7d32	-0.038937755
117	0x3dc9a016	0.09844987
118	0x3d6f3af6	0.05840584
119	0xbb878ed3	-0.004136899
120	0x3e22e198	0.1590637
121	0x3d9407c4	0.07228044
122	0x3e04f993	0.1298583
123	0x3d08cbe4	0.03339757
124	0xbdd189c5	-0.102313556
125	0x3dd5beb4	0.10436764
126	0x3da427ff	0.08015441
127	0x3b7ebc51	0.003886957
128	0xbd8cf61c	-0.06882879
129	0x3dde72a0	0.10861707
130	0xbdb31452	-0.0874411
131	0x3de51f4c	0.1118761
132	0x3d64be4c	0.055845544
133	0x3db04cf0	0.08608425
134	0xbd01af74	-0.031661466
135	0xbd0edad0	-0.034876645
136	0x3ca063f0	0.019578904
137	0xb8811800	-6.15567e-05
138	0x3de57c88	0.11205393
139	0x3cfae1f0	0.030625314
140	0xbc2604c0	-0.010132968
141	0xbd9dc05a	-0.07702704
142	0x3cf730e0	0.030174673
143	0xbdf3cf88	-0.11904818
144	0x3da20132	0.07910384
145	0x3dfa2f4a	0.12216051
146	0xbddea576	-0.10871403
147	0xbd1396fc	-0.03603266
148	0x3d0d7398	0.034534067
149	0xbdec5b5a	-0.115408614
150	0xbd2dd7c8	-0.042442113
151	0xbdec65f0	-0.115428805
152	0xbc572c40	-0.013133109
153	0x3c4e4490	0.012589589
154	0xbd87abf4	-0.06624594
155	0x3db70b24	0.08937672
156	0xbdfe8060	-0.12426829
157	0xbd6668b0	-0.05625218
158	0xbd4fb7a4	-0.050712243
159	0xbd9458e6	-0.072435185
160	0x3ccaca80	0.024754763
161	0xbd67860c	-0.05652432
162	0xbd9d4b9a	-0.076804355
163	0x3bd92400	0.006626606
164	0x3d973894	0.07383838
165	0x3c622320	0.01380232
166	0xbd12aca8	-0.03580919
167	0xbc10dd30	-0.008841798
168	0x3d8cd286	0.06876092
169	0x3ca83430	0.020532697
170	0xbd3bf4d8	-0.045887798
171	0xbdd8c2d4	-0.105840355
172	0xbdedd762	-0.11613347
173	0x3de437a8	0.11143428
174	0xbdc9ac90	-0.09847367
175	0xbdbe5916	-0.092943355
176	0xbd840d7a	-0.06447883
177	0x3d8e512e	0.069490775
178	0xbdab8baa	-0.08376248
179	0xbdfcbe34	-0.12340966
180	0x3d8a3238	0.0674786
181	0x3ddaf186	0.10690598
182	0x3d935008	0.07192999
183	0x3db5942c	0.08866152
184	0xbca51c10	-0.020154983
185	0xbdf7cada	-0.12099238
186	0x3cbfbb50	0.023404747
187	0x3de40020	0.11132836
188	0xbde42a98	-0.111409366
189	0x3cca68a0	0.024708092
190	0xbdc0450e	-0.09388171
191	0xbdd34f72	-0.10317887
192	0x3d3ab3ba	0.045581557
193	0xbace384e	-0.0015733333
194	0xbe2b636c	-0.16737145
195	0xbd073ed2	-0.033018894
196	0x3dde5277	0.10855573
197	0x393a6217	0.00017774884
198	0xbdfdc066	-0.12390213
199	0xbda25601	-0.0792656
200	0x3cc9d136	0.024635892
201	0x3e07acef	0.13249563
202	0xbb903dcd	-0.0044018985
203	0xbd013d75	-0.03155275
204	0x3e441fec	0.19152802
205	0x3d3af7c9	0.045646463
206	0xbd371995	-0.04470213
207	0x3e27b09f	0.1637597
208	0x3b83465d	0.0040061907
209	0xbcb47eef	-0.022033183
210	0x3d89115c	0.06692764
211	0xbd334d14	-0.04377468
212	0x3dc8d985	0.098071136
213	0xbd9f2b1a	-0.07771893
214	0x3e0e439c	0.13892978
215	0x3d829465	0.0637596
216	0x3c8efbeb	0.017454108
217	0xbdba9df3	-0.09112158
218	0xbcfe16c9	-0.031016724
219	0x3d68e6d3	0.056860756
220	0x3de7075b	0.112807
221	0x3e13036b	0.14356773
222	0xbd354275	-0.04425283
223	0x3d3af69c	0.04564534
224	0xbdadf82e	-0.08494602
225	0xbdd096dc	-0.10185024
226	0xbdc826b4	-0.09773007
227	0x3d98533c	0.07437751
228	0xbd9b460e	-0.07581721
229	0xbe040d90	-0.12895799
230	0x3e1a79cb	0.15085523
231	0xbd9af90a	-0.07567032
232	0x3e0784e2	0.13234285
233	0x3d896fd2	0.06710781
234	0xbcf86a7f	-0.030324219
235	0xbe01a41c	-0.12660259
236	0xbdf82282	-0.12115957
237	0xbdb7020a	-0.08935936
238	0xbd59112d	-0.052994896
239	0xbc66f78d	-0.014097107
240	0x3d06cc07	0.03290942
241	0x3dd360bb	0.10321184
242	0xbe25e3a5	-0.16200121
243	0x3be2017a	0.0068971487
244	0x3e149463	0.1450973
245	0xbe3026a7	-0.17202245
246	0xbdc658cd	-0.09684906
247	0xbde7f75e	-0.113264784
248	0xbc966ca8	-0.018362358
249	0x3cfa9f40	0.030593514
250	0xbe324227	-0.17408048
251	0xbcc518aa	-0.024059612
252	0xbd931524	-0.07181767
253	0x3e15db6c	0.14634484
254	0x3d2d0f77	0.042251077
255	0x3cecf596	0.028925698

onnx::LSTM_283 f4 [2, 256, 9]
0	0x3c162ca2	0.009165915
1	0xbd38cfbd	-0.04511999
2	0xbc31f423	-0.010861429
3	0xbdf7b1f1	-0.120944865
4	0xbdb69594	-0.089152485
5	0x3e0cc50f	0.13747047
6	0xbd128b3b	-0.03577731
7	0xbce93fc6	-0.028472792
8	0x3e2ccfe6	0.16876182
9	0x3df03274	0.11728373
10	0x3d4cc1a5	0.04998936
11	0x3d169920	0.036767125
12	0xbb8af06d	-0.004240087
13	0x3d4a5e9a	0.049406625
14	0xbda6768e	-0.08128081
15	0x3ccdce2e	0.025122728
16	0xbd94d870	-0.07267845
17	0xbd17d982	-0.037072666
18	0x3d0136ea	0.03154651
19	0x3b052366	0.0020315289
20	0xbdaff302	-0.08591272
21	0xbd448dde	-0.047986858
22	0x3dc1605d	0.09442208
23	0xbd2221fa	-0.039583184
24	0x3e2adbdb	0.1668543
25	0x3cc62463	0.024187272
26	0xbe36efde	-0.1786494
27	0xbd4bc22b	-0.04974572
28	0xbd886505	-0.06659893
29	0x3e0f3651	0.13985564
30	0x3b270d02	0.002548993
31	0xbdd9285e	-0.106034026
32	0x3ca72c22	0.020406786
33	0x3dfdbda5	0.123896874
34	0xbdd0c063	-0.10192945
35	0x3e085da2	0.13316968
36	0x3baba8c6	0.005238625
37	0x3cbc9c0d	0.02302363
38	0xbcb1efaf	-0.021720735
39	0xbd1a93b5	-0.03773852
40	0x3da40c91	0.08010209
41	0xbc1552a5	-0.009113942
42	0x3e1d4847	0.15359603
43	0x3da1a57b	0.07892891
44	0x3d0e81aa	0.034791626
45	0xbd09d432	-0.03364963
46	0xbd349b03	-0.044093143
47	0x3d349a7f	0.04409265
48	0xbd8a8c13	-0.06764998
49	0x3dc91004	0.09817508
50	0x3e23ccef	0.15996145
51	0x3ce60e12	0.028082881
52	0xbd588c03	-0.0528679
53	0x3d970023	0.07373073
54	0x3c853c29	0.016264038
55	0xbd58d92e	-0.052941494
56	0xbdc7f638	-0.097637594
57	0x3c1b8272	0.00949155
58	0x3db307a1	0.087416895
59	0x3da87dd8	0.08227128
60	0xbddd9c1a	-0.1082079
61	0x3e19cf47	0.15020476
62	0x3dd4c578	0.10389227
63	0x3dc7f84d	0.097641565
64	0x3dc6d32e	0.09708248
65	0xbcd30e3f	-0.025763629
66	0x3d750cc9	0.059826646
67	0x3d859bc2	0.06523849
68	0x3d9c13eb	0.076209866
69	0x3c9180a7	0.017761542
70	0xbd495b56	-0.04915937
71	0xbda642dc	-0.08118221
72	0xbb1e1bec	-0.002412553
73	0x3dd42745	0.103590526
74	0x3d557873	0.052116822
75	0xbcd78f6c	-0.026313506
76	0xbdcd018a	-0.10010059
77	0xbb412fc3	-0.002947793
78	0x3d32da23	0.043665063
79	0x3df2f5d1	0.11863292
80	0x3cd91c11	0.02650264
81	0xbde609e1	-0.11232353
82	0xbc7cb07d	-0.015422937
83	0xbcf0e609	-0.029406564
84	0x3da9f3d4	0.0829846
85	0x3da8b34b	0.082373224
86	0x3da6b7f2	0.081405535
87	0x3e3ce1c9	0.18445505
88	0xbe2510da	-0.1611971
89	0xbd5a4952	-0.05329258
90	0xbe376309	-0.17908873
91	0x3c4bd98d	0.012442005
92	0x3a66a00a	0.00087976514
93	0xbc813723	-0.015773362
94	0xbc8478fb	-0.01617097
95	0xbd10a6d1	-0.03531534
96	0xbd1fbbe4	-0.038997546
97	0xbe1fdaa3	-0.15610747
98	0x3e1a01c1	0.15039732
99	0x3e131ff0	0.14367652
100	0x3d650e22	0.05592168
101	0x3dc4834e	0.09595357
102	0x3db6aa76	0.089192316
103	0xbde7be1b	-0.113155566
104	0xbde9cb6c	-0.11415753
105	0xbdd6a254	-0.104801804
106	0x3c8a0bb2	0.01685128
107	0xbe21bd81	-0.15794946
108	0x3de4ac4e	0.11165677
109	0xbdf0777b	-0.11741539
110	0xbd506b32	-0.05088348
111	0x3cd8e11a	0.026474524
112	0xbd8a84d4	-0.06763616
113	0xbdbab1fa	-0.091159776
114	0x3de76739	0.11298985
115	0xbd8675ba	-0.06565423
116	0xbcc0fb70	-0.023557395
117	0xbe22c0a5	-0.158938
118	0xb9f6b9ce	-0.00047059212
119	0xbd90011f	-0.07031464
120	0x3cef4ab5	0.029210428
121	0xbdfb4b9d	-0.122702815
122	0x3df3ce08	0.11904532
123	0x3e0b73a6	0.13618335
124	0x3c17963b	0.009252126
125	0xbadae724	-0.0016700965
126	0x3dc21455	0.09476534
127	0x3dff9527	0.124796204
128	0xbd7864f4	-0.06064315
129	0x3bb6c5a5	0.0055777603
130	0xbd910ad5	-0.07082144
131	0x3db534c4	0.08847955
132	0x3d2df1d0	0.04246694
133	0xbbfb3969	-0.007666756
134	0xbc806e36	-0.015677553
135	0xbc223146	-0.009899443
136	0x3bc07d04	0.005874278
137	0xbba63e6c	-0.0050733592
138	0xbdab875c	-0.08375427
139	0x3da6fb4b	0.08153399
140	0xbcfb9f7b	-0.030715695
141	0x3cd15145	0.025551448
142	0xbcb72e3d	-0.022360915
143	0xbd771149	-0.06031922
144	0xbd27e452	-0.040989228
145	0x3c30fe09	0.010802754
146	0xbe039a8a	-0.1285192
147	0x3d519add	0.05117308
148	0x3d243fb5	0.04009982
149	0xbd49979c	-0.04921685
150	0xbd989a22	-0.074512735
151	0x3d750cbf	0.05982661
152	0x3d9d0e67	0.07668763
153	0xbe15a0b9	-0.14612092
154	0xbe258abf	-0.16166209
155	0xbd6ac8d8	-0.057320446
156	0x3dcf3843	0.10118153
157	0xbd9520d8	-0.07281655
158	0xbdcc3bc4	-0.09972337
159	0x3d8abab0	0.06773889
160	0xbd172a20	-0.036905408
161	0x3cd2a8c8	0.025715247
162	0xbd03e59b	-0.03220139
163	0xbd8c85d0	-0.0686146
164	0xbcbd6430	-0.023119062
165	0xbc841562	-0.016123477
166	0xbd84c47c	-0.06482789
167	0xbddc749a	-0.107644275
168	0x3e05b3a8	0.13056815
169	0x3d5dfb33	0.05419464
170	0x3aa0f772	0.0012280776
171	0x3e0caf2c	0.13738698
172	0xbda7374c	-0.08164844
173	0x3d90af0f	0.0706464
174	0x3dafceac	0.085843414
175	0x3d038db6	0.032117568
176	0x3db75ab3	0.089528464
177	0xbbf5001a	-0.0074768187
178	0xbd281b77	-0.041041818
179	0x3dd810a0	0.10550046
180	0x3d5f2cf1	0.05448622
181	0xbc974a58	-0.018468067
182	0x3e0f2729	0.13979782
183	0xbd32f259	-0.043688152
184	0xbd1ded0b	-0.03855614
185	0x3c53e8f9	0.012933963
186	0xbd161790	-0.036643565
187	0x3dc8ec25	0.09810666
188	0x3e261a71	0.16221024
189	0xbba8a6e0	-0.005146846
190	0xbdec2597	-0.11530607
191	0xbd8544f3	-0.06507292
192	0xbbd8a864	-0.0066118706
193	0xbdd645b2	-0.10462512
194	0xbbae7d1a	-0.005324972
195	0xbcf87bea	-0.030332524
196	0xbe25ba21	-0.16184284
197	0xbcf4144e	-0.029794838
198	0xbc06175c	-0.00818428
199	0x3d059e80	0.03262186
200	0x3e062f4a	0.13103977
201	0x3bf2c318	0.007408511
202	0x3b3ee607	0.0029128806
203	0x3c5392cc	0.012913417
204	0x3de2760e	0.110576734
205	0x3d1dde26	0.038541935
206	0xbd16fcfb	-0.036862355
207	0xbdb0ce58	-0.08633107
208	0x3d7b30be	0.06132578
209	0x3df5f4d3	0.12009587
210	0xbe071c8b	-0.13194482
211	0xbdc310e1	-0.09524704
212	0xbdd9088f	-0.105973355
213	0xbdc39574	-0.0954999
214	0xbd6298a2	-0.055321343
215	0x3e3123db	0.17298834
216	0xbd875a9d	-0.0660908
217	0x3da73a0a	0.08165367
218	0x3e08d274	0.13361531
219	0x3d59ce49	0.053175244
220	0x3d2c3bf6	0.04204937
221	0xbd8507e9	-0.06495649
222	0x3d880972	0.066424266
223	0x3cb1a622	0.021685664
224	0xbd4076f3	-0.04698844
225	0x3cece620	0.028918326
226	0x3ce08049	0.027404921
227	0x3d617bfc	0.05504988
228	0xbd8e7245	-0.06955389
229	0x3d34cce8	0.044140726
230	0xbd18a764	-0.03726901
231	0x3e106938	0.14102638
232	0x3d8d772a	0.06907494
233	0x3cc187a6	0.023624253
234	0xbe1fe3f8	-0.15614307
235	0x3d9c9ae6	0.07646732
236	0x3e34216c	0.17590874
237	0xbd1ba2b2	-0.037996955
238	0x3b87b1ee	0.004141084
239	0xbdd8a992	-0.10579218
240	0x3d3c4c70	0.045971334
241	0x3e2d02b5	0.16895564
242	0x3e42bbad	0.19016905
243	0x3d57186e	0.052513532
244	0xbdcf14e5	-0.10111407
245	0xbc4948e0	-0.012285441
246	0xbde2b0e6	-0.11068897
247	0x3c5576f9	0.013028854
248	0xbdeb5bfb	-0.11492153
249	0x3e04caa9	0.12967934
250	0x3da80512	0.08204092
251	0x3e3c24da	0.18373433
252	0xbd008384	-0.031375423
253	0x3e325943	0.17416863
254	0xbc06687b	-0.008203621
255	0x3db210a0	0.08694577

onnx::LSTM_284 f4 [2, 256, 64]
0	0xbda262ae	-0.07928978
1	0xbc20f350	-0.009823635
2	0x3d0544f4	0.032536462
3	0xbd9263c2	-0.071479335
4	0xbd1e73d4	-0.03868468
5	0xbdb207ec	-0.08692917
6	0xbdec1be4	-0.11528757
7	0x3dce7df0	0.100826144
8	0xbd60abd8	-0.054851383
9	0xbc234490	-0.009965077
10	0x3cba31a0	0.022728741
11	0x3dbfdb82	0.0936804
12	0xbdc85148	-0.09781128
13	0x3dea3cdc	0.11437389
14	0xbd6d4cc4	-0.057934538
15	0x3d92845c	0.07154152
16	0x3dbf01c2	0.09326507
17	0xbdc36bb6	-0.095420286
18	0x3db9eaf4	0.09078017
19	0xbd928852	-0.07154907
20	0xbcc1cd70	-0.02365753
21	0x3c3e0ba0	0.011599451
22	0xbdeaa498	-0.11457175
23	0x3db704d4	0.08936468
24	0x3dab5a3c	0.0836682
25	0xbd13dc14	-0.036098555
26	0x3d20cb5c	0.03925644
27	0xbc2a0fd0	-0.010379747
28	0xbbe71d80	-0.007053077
29	0x3d4cd78c	0.05001025
30	0xbd869bce	-0.06572686
31	0xbd7a5e24	-0.061124936
32	0xbd2c3028	-0.042038113
33	0xbcfb2b40	-0.030660272
34	0xbd797ff0	-0.060913026
35	0xbcebfc18	-0.028806731
36	0x3d6ed4ec	0.058308527
37	0x3dbd3e88	0.092404425
38	0x3df36726	0.118849084
39	0xbd86e562	-0.0658672
40	0xbdbe70d2	-0.092988625
41	0x3d122a38	0.035684794
42	0x3cd371f0	0.025811166
43	0x3dbdce42	0.09267856
44	0xbdb26f9e	-0.087126955
45	0x3dd5bf66	0.10436897
46	0xbd1888b4	-0.037239745
47	0xbc9be610	-0.0190306
48	0xbd3f6ac0	-0.046732664
49	0xbd08121c	-0.033220395
50	0xbdd441d4	-0.10364118
51	0x3ccec8f8	0.025242314
52	0xbd9299a8	-0.07158214
53	0x3d8bace2	0.06820084
54	0xbd6bec90	-0.05759865
55	0xbd07684c	-0.03305845
56	0x3defaa96	0.117024586
57	0x3d055700	0.032553673
58	0x3d859d16	0.065241024
59	0x3dca1810	0.09867871
60	0xbc733e70	-0.014846429
61	0x3d0acf1c	0.03388892
62	0xbc8356f8	-0.01603268
63	0x3df80a42	0.121113315
64	0x3d190c60	0.037365317
65	0xbdabaa86	-0.08382134
66	0xba7f1100	-0.0009730011
67	0x3cc25260	0.02372092
68	0x3d1d6968	0.0384306
69	0x3d54e130	0.051972568
70	0x3c915208	0.01773931
71	0x3de7cfde	0.113189444
72	0x3dfa15ac	0.12211165
73	0x3dce87e6	0.10084514
74	0x3d82a63a	0.063793615
75	0x3dd13fbe	0.10217236
76	0xbda4ad42	-0.08040859
77	0x3c8fe590	0.017565519
78	0x3d2cea9c	0.04221593
79	0xbdfa01f8	-0.12207407
80	0xbdd5cf52	-0.10439934
81	0x3d682e64	0.056684867
82	0xbdf2c008	-0.11853033
83	0x3ddc1562	0.10746266
84	0x3da0cf9a	0.07852097
85	0x3dc062c4	0.09393838
86	0x3da5d7ca	0.08097799
87	0x3d4eca80	0.050486088
88	0xbbb556a0	-0.005534008
89	0x3d27b404	0.04094316
90	0x3d3d3edc	0.046202525
91	0xbdb8a518	-0.09015864
92	0xbd61d8c4	-0.055138364
93	0xbcff0038	-0.031128034
94	0x3d7f11e8	0.062272936
95	0x3d80b3cc	0.062842935
96	0xbdaedc96	-0.08538167
97	0x3c1a2970	0.0094092935
98	0x3adf2600	0.0017024875
99	0xbdc36094	-0.09539905
100	0xbbcbb7a0	-0.006216958
101	0x3d19cdc0	0.037549734
102	0x3da84712	0.082166806
103	0x3d97039e	0.07373737
104	0xbdf9c356	-0.121954605
105	0xbd9784f2	-0.07398404
106	0xbd9aa722	-0.07551409
107	0x3c4a1140	0.012333214
108	0x3dd7812a	0.10522683
109	0x3c4260e0	0.011863917
110	0xbd0d1aac	-0.034449264
111	0xb9735c00	-0.00023208559
112	0xbd77cd80	-0.060498714
113	0xbdab7c9c	-0.08373377
114	0x3da9c796	0.08290021
115	0x3df859f2	0.12126531
116	0x3da541dc	0.08069202
117	0xbd775464	-0.060383216
118	0xbd55341c	-0.05205165
119	0x3d74913c	0.05970882
120	0xbceba738	-0.02876626
121	0xbd675db0	-0.05648583
122	0x3d8f9c3c	0.07012221
123	0xbd96fac4	-0.073720485
124	0xbc9d6158	-0.019211456
125	0x3b850020	0.004058853
126	0xbd21bbe8	-0.039485842
127	0x3c36d7e0	0.011159867
128	0x3ddaffe4	0.106933385
129	0xbda93f0c	-0.08263978
130	0xbdf0b50a	-0.117532805
131	0x3dbaeae8	0.09126836
132	0x3d68509c	0.0567175
133	0x3ded67cc	0.11592063
134	0xbdbc3cd2	-0.09191288
135	0x3d3c6e00	0.04600334
136	0x3d58e93c	0.052956805
137	0xbda50968	-0.08058435
138	0x3d669458	0.056293815
139	0xbdc61eba	-0.096738294
140	0x3da3e5be	0.08002804
141	0x3d774e88	0.060377628
142	0xbdb621e4	-0.08893183
143	0x3db4e486	0.0883265
144	0xbde605a0	-0.11231542
145	0x3d831f3c	0.06402442
146	0x3c59c7c0	0.013292253
147	0xbd841ff4	-0.06451407
148	0x3daff65e	0.08591913
149	0x3db9f792	0.090804234
150	0x3cacbe78	0.021086916
151	0xbd92bc5a	-0.071648315
152	0x3b9e5d80	0.0048329234
153	0xbdfeeab0	-0.12447107
154	0xbd204078	-0.039123982
155	0xbdb2624e	-0.087101564
156	0x3dd7473a	0.10511632
157	0xbd2e61e4	-0.042573825
158	0xbd806fcc	-0.062713236
159	0x3daa8af2	0.08327283
160	0x3dce7f12	0.100828305
161	0x3db1c966	0.08680992
162	0x3c771500	0.01508069
163	0xbdc6629e	-0.096867785
164	0xbde788d2	-0.11305393
165	0x3dbf4356	0.09339015
166	0xbdb06b7a	-0.086142495
167	0x3de3d192	0.11123957
168	0xbd2f09b0	-0.042733848
169	0xbd99d59c	-0.07511446
170	0xbcfc3180	-0.030785322
171	0x3da06520	0.07831788
172	0x3d0060dc	0.031342372
173	0xbda857dc	-0.08219883
174	0xbb5a1980	-0.003327936
175	0xbd9fad48	-0.07796723
176	0xbd51cb10	-0.051219046
177	0x3c16e490	0.009209767
178	0xbb61c380	-0.0034448802
179	0xbc883df0	-0.016631097
180	0xbdd42d7a	-0.103602365
181	0x3da670b2	0.08126964
182	0xbd614cf4	-0.05500503
183	0x3dff6d50	0.124720216
184	0x3dfff630	0.124981284
185	0xbd97ed24	-0.07418278
186	0x3d819adc	0.06328365
187	0x3d956040	0.07293749
188	0xbbc1b600	-0.0059115887
189	0x3c84e868	0.016224101
190	0x3dd87cb8	0.10570663
191	0xbdc15dee	-0.09441744
192	0x3d8f5556	0.069986984
193	0xbc94fac0	-0.018185973
194	0x3dee8b24	0.11647633
195	0xbcd92e70	-0.026511401
196	0x3c43fb20	0.011961728
197	0x3dd4fe4a	0.10400064
198	0xbddaa5f4	-0.10676184
199	0x3b0dbc80	0.0021627247
200	0x3df6a508	0.12043196
201	0xbd6b93ec	-0.057514116
202	0xbdf10c30	-0.11769903
203	0x3dd1ecbe	0.10250233
204	0x3c291bd0	0.010321572
205	0xbd1e13a4	-0.03859295
206	0xbd6fdf80	-0.058562756
207	0xbc2cda90	-0.010550156
208	0xbd5ead40	-0.054364443
209	0x3cdc2508	0.026873127
210	0xbd3b63e8	-0.045749575
211	0x3d87ba84	0.06627372
212	0xbd543e30	-0.05181712
213	0xbdfdd22e	-0.12393604
214	0xbdff9dea	-0.124812916
215	0x3de63812	0.11241163
216	0x3dac3ca8	0.08410007
217	0x3d15bd1c	0.036557302
218	0xbdb02ffe	-0.08602904
219	0x3d689c4c	0.05678968
220	0xbdc2eb8a	-0.09517582
221	0xbd60eae4	-0.05491151
222	0x3d68c9fc	0.056833252
223	0xbdfbb37e	-0.12290095
224	0xbd65d898	-0.056114763
225	0x3d65da34	0.056116298
226	0x3df3b7be	0.119002804
227	0x3d8d223e	0.06891297
228	0x3ddb961a	0.10721989
229	0x3ddbb45c	0.1072776
230	0xbd765a9c	-0.060145006
231	0x3d324d0c	0.04353051
232	0x3d0754e4	0.033039942
233	0x3de2d798	0.110762775
234	0xbddc6d08	-0.107629836
235	0xbcae8940	-0.02130568
236	0xbd40c4ac	-0.04706256
237	0x3ccedbd8	0.025251314
238	0xbd9a9062	-0.0754707
239	0xbdcefda2	-0.1010697
240	0x3dde7630	0.10862386
241	0xbb71edc0	-0.0036915392
242	0x3d70c31c	0.05877982
243	0xbd6bcbe0	-0.057567477
244	0x3de934f0	0.1138705
245	0xbd6c3a68	-0.057672888
246	0x3de1a434	0.110176474
247	0x3d6ba764	0.057532683
248	0xbdb1aaac	-0.08675131
249	0x3dca9d30	0.098932624
250	0xbd0f777c	-0.03502606
251	0x3dae4b84	0.08510497
252	0xbd9d0f0e	-0.07668887
253	0xbdb6b08a	-0.08920391
254	0xbd2bdd8c	-0.04195933
255	0x3d634518	0.055485815

onnx::LSTM_302 f4 [1, 256, 128]
0	0xbb9533ed	-0.004553309
1	0xbd645cc0	-0.055752516
2	0xbe2eadb2	-0.17058447
3	0x3e21e5aa	0.15810266
4	0x3d75bad2	0.05999262
5	0xbd8d762b	-0.069073044
6	0xbd6e73f9	-0.05821607
7	0xbe035e03	-0.12828831
8	0x3c590f01	0.013248206
9	0x3e3f149c	0.18660206
10	0x3e00623a	0.1253747
11	0x3da77bc4	0.08177903
12	0x3d3e262a	0.046423115
13	0x3c44007f	0.011963009
14	0xbe091890	-0.13388276
15	0xbd1b7f05	-0.037962932
16	0xbca822a5	-0.020524332
17	0xbd82476c	-0.06361279
18	0x3e154099	0.14575423
19	0x3e231f74	0.15929967
20	0xbd4ec1ef	-0.05047792
21	0xbe1b1ac4	-0.15146929
22	0x3e316fe6	0.17327842
23	0x3d9bf4fc	0.076150864
24	0xbd21b0b2	-0.03947515
25	0xbdf0312e	-0.1172813
26	0xbd334b6c	-0.0437731
27	0x3c9f3ea4	0.019439049
28	0x3d81dc65	0.06340865
29	0x3d72bdbf	0.059262987
30	0xbe097861	-0.13424827
31	0xbddd6f60	-0.10812259
32	0xbd14cd3c	-0.03632854
33	0x3d4e21d1	0.05032522
34	0x3cf14b8c	0.029454969
35	0x3c7ef015	0.01556017
36	0xbd98e1f0	-0.07464969
37	0xbdd05b6d	-0.10173688
38	0x3e04fdf6	0.12987503
39	0xbe2f8b9d	-0.17143102
40	0xbba7ac22	-0.0051169554
41	0xbd6a78b6	-0.057244025
42	0xbd6770f9	-0.056504223
43	0xbcf88cb6	-0.030340534
44	0xbc260f18	-0.010135435
45	0x3d76412a	0.06012074
46	0xbcf9f5fe	-0.030512806
47	0x3cbe7025	0.023246834
48	0x3e0a7d5b	0.13524382
49	0xbd547763	-0.05187167
50	0x3cd2dc80	0.025739908
51	0xbd306dbb	-0.043073397
52	0x3e273c1f	0.16331528
53	0xbe384fbf	-0.1799917
54	0xbe2b7727	-0.16744672
55	0xbb016636	-0.001974476
56	0x3ba25d6d	0.004954985
57	0xbcca4937	-0.024693115
58	0x3d1a5226	0.037676
59	0xbe343f37	-0.1760224
60	0xbd20e982	-0.03928519
61	0xbd23a748	-0.039954454
62	0x3e3520f6	0.17688355
63	0x3c0bfef2	0.00854467
64	0xbd522f47	-0.05131462
65	0x3d5d6d4b	0.054059308
66	0x3de4004e	0.111328706
67	0xbd57dbea	-0.05269996
68	0xbe2aa50c	-0.16664523
69	0x3d4f78a1	0.05065215
70	0xbd0225cb	-0.031774323
71	0xbcba6b7e	-0.022756334
72	0xbdb110ab	-0.08645757
73	0xbd91873d	-0.07105873
74	0x3d8a36e4	0.06748751
75	0x3d337ef7	0.043822255
76	0xbd363be2	-0.044490702
77	0xbd270a35	-0.04078122
78	0xb92b5ba4	-0.0001634197
79	0x3d797aa3	0.06090797
80	0x3d6d401f	0.05792248
81	0x3dc24676	0.094860956
82	0x3c4f54a7	0.01265446
83	0xbe099a21	-0.13437702
84	0x3df00aa7	0.11720782
85	0xbd5442d2	-0.051821537
86	0x3cbf1b80	0.023328543
87	0x3de11378	0.109900415
88	0x3de97413	0.113990925
89	0x3daecbf0	0.08534992
90	0xbde5da98	-0.11223334
91	0x3da171e7	0.07883053
92	0xbd3c5f99	-0.045989607
93	0x3e376cfe	0.17912671
94	0xbd7f8fe7	-0.062393095
95	0x3b3aa643	0.0028480447
96	0x3db816ef	0.08988749
97	0x3d58eeeb	0.052962225
98	0xbcf3aa44	-0.029744275
99	0xbe33d948	-0.17563355
100	0x3e11ee6d	0.14251108
101	0xbdd5f87a	-0.10447784
102	0x3d4366ff	0.047705647
103	0xbdb9bfe0	-0.090698004
104	0x3e438222	0.1909261
105	0xbe082fb8	-0.13299453
106	0xbd5972b8	-0.05308792
107	0xba702b26	-0.0009161703
108	0x3d634eee	0.055495195
109	0x3d201386	0.03908112
110	0x3e0edb46	0.13950834
111	0xbd944372	-0.07239427
112	0xbb6262e1	-0.00345438
113	0x3d43792b	0.047722977
114	0x3e3f61c5	0.1868964
115	0x3d8cca58	0.068745315
116	0x3deceb7a	0.11568351
117	0x3bfb6437	0.0076718586
118	0xbe37007f	-0.17871283
119	0x3d2fd61e	0.042928807
120	0xbccc4b00	-0.024938107
121	0x3bc1f805	0.005919459
122	0xbaa7a500	-0.0012790263
123	0xbe2c2e9e	-0.16814658
124	0xbd9ca2f9	-0.07648272
125	0x3c79b969	0.015241959
126	0x3db8d113	0.09024253
127	0x3d39e34e	0.04538279
128	0xbc08a9b9	-0.008341246
129	0x3e0c5e39	0.13707818
130	0xbe203180	-0.15643883
131	0x3e149292	0.14509037
132	0xbc78e765	-0.0151918875
133	0xbdd798fd	-0.10527227
134	0xbdecbb8e	-0.11559211
135	0x3c9d8fb8	0.01923357
136	0x3da8b17d	0.08236978
137	0x3db304d9	0.08741159
138	0x3e099f9f	0.13439797
139	0x3d7954d8	0.06087193
140	0x3e0ff9f9	0.14060201
141	0xbd4910b1	-0.049088184
142	0xbdee4de1	-0.11635948
143	0x3d4cf771	0.050040666
144	0x3d8f9d3a	0.070124105
145	0xbd7c1937	-0.061547484
146	0xbd5752e5	-0.05256929
147	0xbdda879b	-0.10670396
148	0x3d9b0d7c	0.07570931
149	0x3b29e04a	0.002592104
150	0x3dab6754	0.08369318
151	0x3d730e0f	0.05933958
152	0x3b13387f	0.0022464094
153	0xbdd21867	-0.10258561
154	0xbb930667	-0.004486847
155	0xbdffb5cb	-0.12485846
156	0x3e3270aa	0.1742579
157	0x3e0b368b	0.13595025
158	0xbbe6632f	-0.0070308666
159	0x3d617c54	0.05505021
160	0xbd24dafe	-0.04024791
161	0x3cf41eec	0.029799901
162	0xbddb41c1	-0.10705901
163	0x3d279fb2	0.04092378
164	0x3d480b46	0.048838876
165	0x3c6382e0	0.0138861835
166	0x3d487f4c	0.048949525
167	0xbd4d1a8b	-0.05007414
168	0x3e2d370f	0.16915534
169	0x3e133acd	0.143779
170	0x3daa656e	0.083201274
171	0xbd27c071	-0.04095501
172	0xbd99fc7a	-0.07518859
173	0xbc0b480b	-0.008501063
174	0x3d06a8df	0.03287589
175	0xbdccb33a	-0.09995122
176	0xbce34bbb	-0.027746072
177	0xbd046643	-0.032324087
178	0xbe1d9a91	-0.15390994
179	0x3dd3a058	0.103333175
180	0x3e1695c5	0.1470557
181	0xbdc1fcf6	-0.094720766
182	0x3c754071	0.014968977
183	0xbd1915ae	-0.03737419
184	0xbdbed24e	-0.09317456
185	0x3d51ae8b	0.051191848
186	0x3d26ec44	0.040752664
187	0xbdf831f5	-0.121189035
188	0x3c8c2352	0.017106686
189	0xbd9852da	-0.07437678
190	0x3d3d42a5	0.046206135
191	0x3cbd8e59	0.023139166
192	0x3d215aae	0.03939312
193	0xbd2bbb40	-0.041926622
194	0x3e12a179	0.1431941
195	0xbe1916ef	-0.14950155
196	0x3dbfb53f	0.09360742
197	0xbddbcf4e	-0.107328996
198	0xbccf3497	-0.025293631
199	0xbe3491a7	-0.17633687
200	0x3d82d188	0.06387621
201	0xbd3adb81	-0.04561949
202	0xbd0e4853	-0.034736942
203	0x3e239311	0.1597407
204	0xbca8e779	-0.020618187
205	0xbe002dcb	-0.12517469
206	0x3cd3ad58	0.025839493
207	0x3cb5fd3d	0.02221548
208	0x3e014a1e	0.1262593
209	0x3d7b3c26	0.06133666
210	0xbe2046ba	-0.1565198
211	0xbe23b2ac	-0.15986127
212	0x3de3ccbd	0.11123035
213	0x3d94b4f7	0.07261079
214	0xbe188437	-0.14894186
215	0xbd4251a8	-0.047441155
216	0xbcd71506	-0.026255142
217	0x3dadf728	0.08494407
218	0x3c8eac46	0.01741613
219	0x3e235d82	0.15953639
220	0x3ddcc3bc	0.10779521
221	0xbd5facc8	-0.054608136
222	0xbdaa76f1	-0.083234675
223	0x3d6ae691	0.05734879
224	0xba9e38df	-0.0012071392
225	0xbd8abff8	-0.067748964
226	0xbde0d671	-0.109784015
227	0xbe41191b	-0.18857233
228	0x3cd278fc	0.025692455
229	0xbe2d56c3	-0.16927628
230	0xbdeaa613	-0.114574574
231	0xbe42f3af	-0.1903827
232	0x3dc992aa	0.09842427
233	0xbd6d14bb	-0.0578811
234	0x3e3cd88f	0.18441986
235	0x3e1f5c41	0.15562536
236	0x3da3e85a	0.08003302
237	0x3d221628	0.03957191
238	0x3e2a678e	0.16641065
239	0xbd8a73cf	-0.0676037
240	0xbdfb6cf7	-0.12276643
241	0xbd6ef229	-0.05833641
242	0xbd22d739	-0.039756034
243	0x3d8662ea	0.06561835
244	0xbd54610d	-0.051850367
245	0xbca1d660	-0.019755542
246	0xbd59b453	-0.053150486
247	0xbca21996	-0.019787591
248	0x3c0538f8	0.008131258
249	0xbc4e66f9	-0.012597793
250	0x3db4285d	0.08796761
251	0x3cf9ca6d	0.030492032
252	0xbd7fdb41	-0.062464956
253	0xbe03143e	-0.1280069
254	0x3e354442	0.1770182
255	0xbc8e1b32	-0.017346952

onnx::LSTM_303 f4 [1, 256, 64]
0	0xbda32b44	-0.07967237
1	0x3d55a670	0.05216068
2	0xbd1e1a54	-0.038599327
3	0x3da97084	0.08273414
4	0x3d8f6586	0.07001786
5	0xbce0d8a0	-0.027447045
6	0x3c7f6060	0.015586942
7	0xbd236474	-0.03989072
8	0xb92bcc00	-0.00016383827
9	0x3d284a94	0.04108675
10	0xbda989b2	-0.082782164
11	0xbdb42316	-0.087957546
12	0x3d848380	0.06470394
13	0x3c9f78b8	0.019466743
14	0x3d5112f0	0.05104345
15	0xbcdc5e78	-0.026900515
16	0x3d4265c4	0.047460333
17	0xbdd51302	-0.10404016
18	0x3d63ddd8	0.05563149
19	0x3d8c962c	0.068645805
20	0xbdd2c6f4	-0.102918535
21	0x3bd36060	0.006450698
22	0x3df77318	0.12082499
23	0x3df9e1c0	0.122012615
24	0xbb6164c0	-0.0034392327
25	0xbbbcdd40	-0.0057636797
26	0xbdcaa232	-0.098942176
27	0xbca5ae20	-0.02022463
28	0x3d778b00	0.060435295
29	0xbdc0178a	-0.0937949
30	0x3d00beec	0.031432077
31	0xbb74ac80	-0.0037334263
32	0xbd1504dc	-0.036381587
33	0x3bd0e9e0	0.0063755363
34	0xbde2705a	-0.110565856
35	0xbdb36e08	-0.08761221
36	0x3d091508	0.033467323
37	0xbdb09bc6	-0.086234614
38	0x3c32e6a0	0.010919243
39	0xbd142d18	-0.036175817
40	0x3dfa0f90	0.122099996
41	0x3d7c9de4	0.061674014
42	0x3d68854c	0.056767747
43	0x3d801290	0.062535405
44	0xbd43c3b8	-0.047794074
45	0x3df3c9cc	0.11903724
46	0x3d3dca9c	0.0463358
47	0x3da76020	0.08172631
48	0x3df27dde	0.118404135
49	0x3d48e74c	0.049048707
50	0xbdc0c758	-0.09413022
51	0xbc8c1d40	-0.017103791
52	0xbbeb30c0	-0.0071774423
53	0x3dcfeae6	0.10152225
54	0x3d44505c	0.0479282
55	0x3d9d3ee6	0.076780125
56	0xbc171f90	-0.009223834
57	0xbdadcdb6	-0.08486502
58	0x3da11768	0.078657925
59	0x3d540e80	0.05177164
60	0x3d9e150a	0.07718857
61	0x3df668ba	0.12031694
62	0xbdee99a8	-0.11650401
63	0x3db28ef4	0.087186724
64	0xbdfa543c	-0.12223098
65	0xbd6d8a58	-0.057993263
66	0x3d6db058	0.058029503
67	0x3dad1c1e	0.084526286
68	0x3d8f4128	0.069948494
69	0x3de69458	0.11258763
70	0xbd00da8c	-0.031458423
71	0x3db464b6	0.088082716
72	0x3dfdb1f2	0.12387456
73	0xbcc50c48	-0.024053708
74	0xbdf08e64	-0.11745909
75	0x3ddc81a0	0.107669115
76	0x3ddd9c60	0.10820842
77	0xbdd03082	-0.10165502
78	0x3c3a8e20	0.011386424
79	0x3cd92c28	0.026510313
80	0xbdfe4816	-0.12416093
81	0x3defcc6c	0.11708912
82	0x3db34c8c	0.087548345
83	0xbc95d4f8	-0.018290028
84	0xbb9a59c0	-0.004710406
85	0x3dad298e	0.084551916
86	0xbdbd25a6	-0.092356965
87	0x3dc7fe20	0.09765267
88	0xbb66be80	-0.0035208762
89	0xbd98f62e	-0.0746883
90	0x3d56fc74	0.05248685
91	0xbcac58c0	-0.021038413
92	0x3df0c2de	0.11755918
93	0xbdc8a31e	-0.09796737
94	0xbd04b9cc	-0.032403752
95	0x3d154da4	0.036450997
96	0x3c999798	0.018749043
97	0x3d30d108	0.043168098
98	0x3cf3fed0	0.02978459
99	0xbd6c6430	-0.057712734
100	0xbde9b81c	-0.11412069
101	0x3d0c26b4	0.034216598
102	0x3db3dc6e	0.08782278
103	0x3de76eac	0.11300406
104	0xbddc2f32	-0.10751189
105	0xbda300f2	-0.07959165
106	0x3d7b1fac	0.0613095
107	0x3de746e8	0.11292821
108	0xbda92ea2	-0.08260848
109	0xbd5618a4	-0.052269593
110	0x3d149744	0.03627707
111	0x3cc21dc0	0.023695827
112	0xbd35944c	-0.04433088
113	0xbc61ff70	-0.013793811
114	0xbd614cd8	-0.055004925
115	0xbda7c9ec	-0.081928104
116	0x3d2cafdc	0.0421599
117	0xbd47561c	-0.048666105
118	0x3d7d716c	0.061875746
119	0x3dd89406	0.10575108
120	0xbdc2ce60	-0.09512019
121	0x3c08be70	0.008346185
122	0xbd652f8c	-0.055953547
123	0xbc8a67e0	-0.016895235
124	0x3c290560	0.010316223
125	0xbc7b4740	-0.015336812
126	0x3d4f3784	0.050590053
127	0xbde3867a	-0.11109634
128	0xbd68ca5c	-0.05683361
129	0x3df2cd54	0.118555695
130	0x3d81c54e	0.06336461
131	0xbd506440	-0.050876856
132	0x3da4ab3a	0.080404714
133	0x3d968a54	0.07350603
134	0x3dc5e6c2	0.09663154
135	0x3dff62c8	0.12470013
136	0xbdfa2430	-0.122139335
137	0xbd3c0f6c	-0.045913145
138	0xbd75ecbc	-0.06004022
139	0x3d302308	0.04300216
140	0xbdc7e616	-0.09760682
141	0x3de233c6	0.11045031
142	0xbc3120c0	-0.010811031
143	0xbd9fea8c	-0.07808408
144	0x3d5575a0	0.05211413
145	0x3da84ee2	0.08218171
146	0x3db2e7ae	0.08735596
147	0x3c7392a0	0.014866501
148	0xbda0b1ac	-0.07846388
149	0x3dc29a72	0.09502114
150	0xbdd72638	-0.105053365
151	0xbd5d4fc0	-0.054031134
152	0xbd74639c	-0.059665307
153	0x3bca6c20	0.0061774403
154	0xbdbf7e78	-0.09350294
155	0xbd5a9704	-0.053366676
156	0x3dddd34c	0.10831317
157	0xbd1bbe64	-0.038023368
158	0x3dfe45f6	0.12415688
159	0x3dd88c6a	0.10573657
160	0xbaaa5600	-0.0012995601
161	0x3dd61c26	0.10454588
162	0x3df637e0	0.12022376
163	0x3c32f5d0	0.010922864
164	0x3ddb6046	0.10711722
165	0xbd6df678	-0.05809638
166	0x3d55a418	0.052158445
167	0xbd3d2230	-0.046175182
168	0x3d9e11fe	0.077182755
169	0xbd8dbd40	-0.06920862
170	0x3dcc4cc6	0.09975581
171	0xbc645e10	-0.013938442
172	0x3dffe716	0.12495248
173	0x3d843f32	0.06457366
174	0xbd2fd260	-0.04292524
175	0x3d954936	0.072893545
176	0x3da65656	0.08121936
177	0x3d86b90a	0.06578262
178	0x3dfbe4e8	0.1229952
179	0xbd06f024	-0.03294386
180	0xbbd611c0	-0.0065328777
181	0xbd849d14	-0.06475273
182	0x3d2df170	0.04246658
183	0x3d4a2708	0.04935363
184	0x3b98b520	0.0046602637
185	0xbc8ed8b8	-0.017437324
186	0xbd8cc190	-0.068728566
187	0xbd88b38c	-0.06674871
188	0xbdb59cd2	-0.08867802
189	0x3c911528	0.017710283
190	0x3ded24d4	0.1157929
191	0x3cbc9448	0.023019925
192	0x3d429c40	0.047512293
193	0xbd895522	-0.06705691
194	0xbd737e8c	-0.059446856
195	0xbd7b2ee4	-0.061324015
196	0xbc990b28	-0.018682078
197	0x3d67d540	0.056599855
198	0x3d89c552	0.06727089
199	0xbdf0465c	-0.1173217
200	0x3df13cd2	0.11779179
201	0xbdbd7a74	-0.09251872
202	0x3ddc6700	0.10761833
203	0xbdf8df9e	-0.121520266
204	0xbdf19a78	-0.11797041
205	0xbdbaa342	-0.0911317
206	0x3d81dad2	0.06340565
207	0x3cdfc848	0.027317181
208	0xbca943c8	-0.020662203
209	0xbd40031c	-0.046877965
210	0x3ddaf0b0	0.10690439
211	0xbc76ced0	-0.015063956
212	0xba002a00	-0.0004889071
213	0xbc4f4b90	-0.012652293
214	0xbcc6c5d0	-0.024264246
215	0x3cb5b848	0.022182599
216	0x3df457b2	0.11930789
217	0xbdbceaee	-0.09224497
218	0xbc3152b0	-0.010822937
219	0xbde37cc2	-0.1110778
220	0x3de574b0	0.11203897
221	0x3ddfdc26	0.10930662
222	0x3dfa1c58	0.122124374
223	0x3d50ae30	0.05094737
224	0xbdedf6ea	-0.11619361
225	0x3c743870	0.014906034
226	0xbd842524	-0.064523965
227	0x3cb68a98	0.022282884
228	0x3d50cdb4	0.050977424
229	0x3c846050	0.016159207
230	0x3dab8d80	0.08376598
231	0x3d931a78	0.07182783
232	0x3db0feec	0.086423725
233	0x3d507ba0	0.050899148
234	0xbd591f14	-0.053008154
235	0xbd136fe0	-0.035995364
236	0x3d5a7754	0.053336456
237	0x3c7a6220	0.015282184
238	0xbd7fc248	-0.06244114
239	0x3d1b7810	0.037956297
240	0x3dcc4d58	0.0997569
241	0x3dc68cee	0.09694849
242	0xbdd3c8ea	-0.10341056
243	0xbd914102	-0.070924774
244	0xbd280d58	-0.04102835
245	0xbd02fb88	-0.03197816
246	0x3dbe966a	0.09306033
247	0x3da79bfa	0.08184047
248	0xbd4a5fd4	-0.049407795
249	0xbc5e8d90	-0.013583556
250	0xbdf58606	-0.119884536
251	0xbddb748e	-0.107155904
252	0xbdc88780	-0.097914696
253	0x3db5b476	0.08872311
254	0xbdac4654	-0.084118515
255	0x3cf3d130	0.029762834
