ml-models/improved_lstm_model.onnx (onnx, 373680 bytes, 10 tensors)

fc1.weight f4 [64, 64]
0.027698964 0.14793158 -0.0015055729 0.16413483 -0.014317429 -0.01890959 0.17912085 0.113657616
-0.034644715 0.058050968 0.026005646 0.0008290489 0.008653413 -0.078428306 -0.1151154 0.15615597
0.036920685 0.08267628 0.034710325 -0.10692557 0.13339116 -0.1404082 0.1591428 0.036473367
0.07064357 0.077565834 -0.03367292 0.013977542 -0.19903243 -0.06645374 0.19714177 0.038065407
0.07640084 0.103755474 -0.0037481657 0.059417024 -0.030389039 -0.19612065 0.19423537 0.057960216
-0.057407163 0.10122549 -0.10836684 0.09163115 -0.16927592 -0.050012708 0.117935404 -0.19295648
-0.029550022 0.12111296 -0.15212648 0.040488943 0.11481071 0.03271835 -0.05019177 0.0801992
-0.09468052 0.045370113 0.18234846 -0.14759174 -0.004980597 -0.034988355 0.09502207 0.012023688
0.1008366 0.15111487 -0.05495323 0.18083344 -0.012566348 -0.13882181 0.14973667 -0.0037179508
0.011741462 0.048994657 -0.060055017 -0.026313452 0.15065001 -0.101381265 -0.046830595 0.11221169
0.07375398 0.08159513 0.18341856 -0.06652042 0.06119305 0.00021071793 0.014845477 -0.10936922
0.083487205 0.1701654 -0.16420305 0.10365069 -0.05149238 -0.1304707 0.19351989 0.1025831
0.17966576 0.06789339 -0.12532571 -0.07569453 0.034154605 0.0052178386 0.11406537 0.08010437
0.01861879 0.099107474 -0.1410448 -0.014267612 -0.19223326 -0.03282463 0.08738117 0.026626889
0.027028542 0.075677216 0.010181735 0.06972718 0.15145394 0.024181554 0.050640646 0.017359309
-0.0048430013 0.0015270521 0.1398653 -0.004185803 0.16405559 0.063499086 0.13787863 0.07203252
-0.007183582 -0.025179395 0.031063924 0.098271616 0.103199005 0.11299444 -0.10411679 -0.06110211
-0.13548684 -0.124792345 -0.037031524 -0.09732295 0.10360541 -0.011428618 -0.078371875 -0.08860293
0.028731449 -0.06616256 -0.09628149 -0.0068497104 -0.14127325 -0.11508344 0.011659163 0.11044171
0.092522554 -0.13456948 0.14657359 0.038678356 -0.01049316 0.10074168 -0.012519278 -0.11935099
-0.04209936 -0.11275057 0.09162543 -0.14782338 -0.08669362 -0.119581126 0.011514255 -0.051382188
0.038948167 0.03698577 0.058444683 0.13046953 -0.0029010018 0.043416854 -0.0441418 0.12732644
0.068099804 0.039240234 0.020203061 0.1759216 -0.040051695 -0.031998035 -0.037384436 -0.07610344
-0.014316547 0.033049572 0.006647288 0.17370985 0.03403804 -0.109562896 0.026825992 -0.07103857
-0.0037241576 -0.06249869 -0.028866809 0.0108468365 -0.08975691 0.0434699 0.029393122 -0.07159144
0.05756961 0.11159565 -0.122372285 -0.010092964 0.051102683 0.092013106 0.06647129 -0.055267595
-0.04728137 0.03593056 -0.07902869 -0.002488123 -0.051652834 0.15905316 -0.04040609 0.055160683
0.02218647 -0.06628627 -0.0093860505 -0.07454322 -0.0026432711 0.14371663 -0.035731778 0.16436985
0.11878831 -0.06239068 -0.05971857 0.047264762 -0.026964642 0.058798585 -0.13155155 0.043665957
0.048970982 0.02960774 0.0514829 -0.006052101 -0.036361393 0.067819625 0.062479217 0.11924062
-0.11984339 0.0009671446 -0.07148965 0.03493875 -0.04361032 0.06886116 0.032645572 -0.063184686
0.03318373 -0.12115465 -0.08315032 -0.008974656 0.078756675 0.05522474 -0.14747757 0.07770927
00000000: f0e8 e23c 607b 173e a556 c5ba f612 283e
00000010: a693 6abc 49e8 9abc 756b 373e 53c5 e83d
00000020: 9ee7 0dbd dac6 6d3d cb09 d53c 8854 593a
00000030: 0bc7 0d3c 059f a0bd 9fc1 ebbd 5ae7 1f3e
00000040: 253a 173d 2e52 a93d 6a2c 0e3d cbfb dabd
00000050: b197 083e 2bc7 0fbe 55f6 223e 1965 153d
00000060: 93ad 903d d6da 9e3d 9eec 09bd 0f02 653c
00000070: 28cf 4bbe e618 88bd 88df 493e 79ea 1b3d
00000080: 0b78 9c3d c07d d43d c9a3 75bb 445f 733d
00000090: 6ff2 f8bc dad3 48be a3e5 463e b167 6d3d
000000a0: c623 6bbd 4f4f cf3d 6fef ddbd 1da9 bb3d
000000b0: ab56 2dbe 20da 4cbd 1e88 f13d 6296 45be
000000c0: e312 f2bc 120a f83d 0bc7 1bbe bcd7 253d
000000d0: e121 eb3d ad03 063d e395 4dbd 7a3f a43d
000000e0: dce7 c1bd 03d6 393d 8eb9 3a3e 4a22 17be
000000f0: 4734 a3bb f34f 0fbd ee9a c23d 01ff 443c
00000100: 6b83 ce3d dbbd 1a3e a316 61bd 672c 393e
00000110: 15e3 4dbc 4e27 0ebe 9254 193e dda8 73bb
00000120: 435f 403c 9fae 483d 40fc 75bd 4f8f d7bc
00000130: ff43 1a3e fba0 cfbd 70d1 3fbd 3ecf e53d
00000140: 540c 973d 591b a73d 13d2 3b3e dc3b 88bd
00000150: 90a5 7a3d 2af4 5c39 723a 733c f8fc dfbd
00000160: 57fb aa3d d73f 2e3e d824 28be d046 d43d
00000170: ade9 52bd 1c9a 05be 142a 463e 1717 d23d
00000180: 4dfa 373e b10b 8b3d 6255 00be bc05 9bbd
00000190: b3e5 0b3d 67fa aa3b 1b9b e93d c30d a43d
000001a0: 6f86 983c dcf8 ca3d 0c6e 10be b4c2 69bc
000001b0: ccd8 44be 1f73 06bd e6f4 b23d a220 da3c
000001c0: f66a dd3c a8fc 9a3d 4bd1 263c 20cd 8e3d
000001d0: be16 1b3e 6518 c63c 916c 4f3d 1c35 8e3c
000001e0: 0ab2 9ebb 5e27 c83a d938 0f3e 0f29 89bb
000001f0: 30fe 273e cf0b 823d 0e30 0d3e c985 933d
00000200: 4164 ebbb 0545 cebc c579 fe3c a142 c93d
00000210: 005a d33d a169 e73d 2f3b d5bd 3546 7abd
00000220: 10bd 0abe 2193 ffbd 5eae 17bd 4151 c7bd
00000230: 132f d43d 193f 3bbc 6f81 a0bd 7475 b5bd
00000240: 375e eb3c 3c80 87bd 3b2f c5bd 8973 e0bb
00000250: efa9 10be deb0 ebbd 1306 3f3c 432f e23d
00000260: 777c bd3d 95cc 09be 6317 163e 326d 1e3d
00000270: 81eb 2bbc a751 ce3d a81d 4dbc 4b6e f4bd
00000280: 6170 2cbd c5e9 e6bd 1da6 bb3d 035f 17be
00000290: 6d8c b1bd f3e6 f4bd 49a6 3c3c 2176 52bd
000002a0: 1d88 1f3d 647e 173d b163 6f3d ce99 053e
000002b0: bc1e 3ebb dfd5 313d 08ce 34bd dd61 023e
000002c0: e977 8b3d 5eba 203d e480 a53c cb24 343e
000002d0: 3f0d 24bd 5f10 03bd 6c20 19bd 1fdc 9bbd
000002e0: f38f 6abc fd5e 073d 7ed1 d93b ffe0 313e
000002f0: 796b 0b3d 8362 e0bd 2fc2 db3c ab7c 91bd
00000300: ff10 74bb a0fe 7fbd 167a ecbc eeb6 313c
00000310: 79d2 b7bd 7e0d 323d d8c9 f03c 889e 92bd
00000320: 1dce 6b3d 438c e43d 529e fabd f65c 25bc
00000330: 0c51 513d 5e71 bc3d 1a22 883d 4660 62bd
00000340: 1caa 41bd ec2b 133d cbd9 a1bd c70f 23bb
00000350: ec91 53bd d5de 223e db80 25bd 2bf0 613d
00000360: 66c0 b53c 19c1 87bd f3c7 19bc 1eaa 98bd
00000370: bb3a 2dbb 742a 133e 7c5b 12bd 9250 283e
00000380: 4947 f33d 5f8d 7fbd 769b 74bd b298 413d
00000390: f4e4 dcbc c9d6 703d 73b5 06be 13db 323d
000003a0: cc95 483d ee8b f23c bcdf 523d b450 c6bb
000003b0: afef 14bd 04e5 8a3d 35ea 7f3d 6d34 f43d
000003c0: 7470 f5bd fa87 7d3a 2a69 92bd ef1b 0f3d
000003d0: bca0 32bd 1407 8d3d 5db7 053d f966 81bd
000003e0: aaeb 073d ee1f f8bd b74a aabd 700a 13bc
000003f0: 2e4b a13d 5633 623d 5c04 17be 0a26 9f3d

fc1.bias f4 [64]
0.05529763 0.04026939 -0.06095245 0.0132710505 -0.007915898 0.18838774 0.06816364 0.12305788
0.05433785 0.06320296 0.01768695 0.15927595 0.07370879 0.18880941 -0.06414652 0.05621063
0.18134573 -0.07015115 -0.026017712 -0.051188424 0.12599856 -0.048566625 0.10667342 0.051056676
0.082756385 0.12877023 -0.044841755 -0.124528676 -0.053527858 -0.056479756 -0.025892284 -0.020432116
0.12872015 0.10443156 0.10880673 0.116712965 -0.03681847 0.09846044 -0.08663649 -0.012151493
-0.13890451 0.15748248 0.048798602 0.028139697 -0.077547446 -0.029148458 0.025133047 -0.039555505
0.101864 0.17460005 0.07760995 0.03309186 0.07997978 0.14850356 -0.094016135 0.0959916
0.06743528 0.09256928 0.15388454 -0.064630166 0.043075383 -0.05669313 -0.10453078 0.0018348207
00000000: c57f 623d 84f1 243d 47a9 79bd d26e 593c
00000010: afb1 01bc b7e8 403e 6199 8b3d c505 fc3d
00000020: 5e91 5e3d 8e70 813d 39e4 903c 3c19 233e
00000030: a2f4 963d 4157 413e 405f 83bd 1e3d 663d
00000040: b2b2 393e 68ab 8fbd 1923 d5bc f4aa 51bd
00000050: c405 013e cced 46bd 9877 da3d ce20 513d
00000060: 2e7c a93d 58dc 033e fdab 37bd e408 ffbd
00000070: 0740 5bbd 5157 67bd 0e1c d4bc 4161 a7bc
00000080: 37cf 033e 37e0 d53d 10d6 de3d 3507 ef3d
00000090: f7ce 16bd a1a5 c93d 796e b1bd 0e17 47bc
000000a0: fc3c 0ebe 1643 213e 0be1 473d 3985 e63c
000000b0: 32d1 9ebd bfc8 eebc d2e3 cd3c f404 22bd
000000c0: 139e d03d 5bca 323e f7f1 9e3d 558b 073d
000000d0: 70cc a33d 5111 183e 888b c0bd 3e97 c43d
000000e0: 821b 8a3d f694 bd3d e993 1d3e d25c 84bd
000000f0: d06f 303d 0e37 68bd 3c14 d6bd 5e7e f03a

fc2.weight f4 [3, 64]
-0.14006342 -0.094867915 0.17887135 -0.13547866 0.1675042 -0.1502672 0.16884793 0.025932813
-0.06805701 -0.014121957 0.07483382 -0.2014454 -0.20026395 -0.1774586 -0.057185605 -0.14857186
-0.09435791 0.009785445 0.15182924 0.10970872 -0.04968199 0.00450853 0.03297399 0.031425186
0.10348394 0.068587884 0.17993984 0.100957274 -0.07672905 0.0931921 0.037610885 -0.07662234
-0.14591485 -0.18222712 -0.18673629 -0.17301466 -0.078981295 0.042018652 -0.03112655 -0.1906081
0.026833564 -0.121854246 -0.20979603 0.15488243 0.042471603 -0.06186094 0.094249696 -0.16449133
-0.006214479 -0.19191629 0.040381517 0.087420054 -0.09965305 -0.13514218 -0.034312353 0.10346753
-0.19203325 -0.04787824 -0.14722462 0.014734202 -0.04906232 -0.05997908 0.1154753 0.15370196
-0.15771243 -0.18462422 -0.13710566 -0.008797979 -0.0016561387 0.039001983 0.10731291 -0.098303154
-0.021906251 0.03788299 -0.081939146 -0.11270627 -0.14878258 0.09755011 0.06168239 -0.011718215
0.012533698 -0.17859954 -0.03295556 0.12267702 0.1431143 0.061566424 0.1686103 0.012092226
-0.031898655 0.12654921 -0.034364127 -0.038301095 -0.08413748 -0.1393258 -0.11808484 -0.07643099
0.19054815 -0.061933294 -0.17653587 0.123750634 0.046372205 0.14674887 0.058408484 -0.13232091
-0.116224445 0.04268463 -0.16800804 0.09901125 -0.0015795976 0.08303512 0.031905584 -0.17881839
0.15584205 0.036678683 0.045373898 0.056484718 -0.007828898 -0.09507193 -0.022036925 -0.032917593
0.057750575 -0.11672917 -0.046409197 -0.15518416 -0.034518395 -0.17547208 -0.14352316 -0.083698116
0.02737582 0.08615501 0.027954558 -0.15979284 -0.21312313 0.06110523 -0.089189366 0.11586355
0.15598208 0.16424648 -0.14977168 0.08287034 0.06975766 0.12989272 -0.07512672 0.09755385
0.09642891 0.09777658 -0.072043054 -0.16875774 -0.102584094 0.032214165 -0.026202047 -0.16739361
-0.10631578 0.004810426 -0.13790852 -0.11115602 -0.054782465 -0.16397004 0.13237274 0.12149255
-0.109404676 0.1764574 -0.008541451 -0.06248747 -0.065566175 -0.093809806 -0.020427091 0.09547246
-0.06890554 0.10050661 -0.005121196 -0.038736764 -0.07725428 0.06002481 -0.18236792 0.07236018
-0.16336693 0.07496597 -0.20582418 -0.20325375 0.18154009 0.17972605 -0.06584759 -0.14316109
-0.1693037 0.12361255 0.06654711 -0.099631555 0.09580563 0.06514541 -0.048167236 -0.19294511
00000000: c96c 0fbe 1c4a c2bd 0d2a 373e ebba 0abe
00000010: 3986 2b3e a5df 19be 79e6 2c3e 0d71 d43c
00000020: 7961 8bbd c85f 67bc 7942 993d b447 4ebe
00000030: fe11 4dbe b5b7 35be 743b 6abd 3923 18be
00000040: b83e c1bd 2253 203c 2079 1b3e f7ae e03d
00000050: 587f 4bbd 4abc 933b bc0f 073d b2b7 003d
00000060: 63ef d33d ce77 8c3d 2642 383e b0c2 ce3d
00000070: 1f24 9dbd 80db be3d df0d 1a3d 2cec 9cbd
00000080: b46a 15be bf99 3abe cc37 3fbe c12a 31be
00000090: f2c0 a1bd c01b 2c3d 1bfd febc c52e 43be
000000a0: 10d2 db3c b88e f9bd c5d4 56be 8099 1e3e
000000b0: b4f6 2d3d e661 7dbd fc05 c13d 6a70 28be
000000c0: d4a2 cbbb b485 44be 1767 253d 4909 b33d
000000d0: e616 ccbd b662 0abe 1c8b 0cbd c9e6 d33d
000000e0: 5da4 44be f91b 44bd 0dc2 16be b967 713c
000000f0: 92f5 48bd a0ac 75bd 507e ec3d 0c64 1d3e
00000100: 5e7f 21be 220e 3dbe 6d65 0cbe 6625 10bc
00000110: cb12 d9ba 8bc0 1f3d dfc6 db3d 2a53 c9bd
00000120: bd74 b3bc 322b 1b3d b6cf a7bd 8bd2 e6bd
00000130: 765a 18be 5ac8 c73d aca6 7c3d c2fd 3fbc
00000140: 245a 4d3c cce2 36be 69fc 06bd 173e fb3d
00000150: 8e8c 123e 132d 7c3d 2ea8 2c3e 791e 463c
00000160: 2aa8 02bd 1e96 013e 66c1 0cbd 9ce1 1cbd
00000170: 4550 acbd 6cab 0ebe 77d6 f1bd da87 9cbd
00000180: 0e1f 433e c4ad 7dbd d2c5 34be f970 fd3d
00000190: c8f0 3d3d 5645 163e bc3d 6f3d 227f 07be
000001a0: 1507 eebd 14d6 2e3d 4d0a 2cbe 69c6 ca3d
000001b0: 800a cfba 510e aa3d 6eaf 023d 2b1c 37be
000001c0: 0f95 1f3e 633c 163d fbd9 393d 855c 673d
000001d0: c744 00bc 12b5 c2bd c886 b4bc 99d4 06bd
000001e0: de8b 6c3d b40f efbd 9217 3ebd 99e8 1ebe
000001f0: 2963 0dbd f4ae 33be bcf7 12be eb69 abbd
00000200: 4143 e03c 0a72 b03d f500 e53c bca0 23be
00000210: f33c 5abe 7a49 7a3d eaa8 b6bd de49 ed3d
00000220: c4b9 1f3e 3b30 283e bf5d 19be edb7 a93d
00000230: 1bdd 8e3d 9902 053e 0adc 99bd 50ca c73d
00000240: 857c c53d 163f c83d 4f8b 93bd d4ce 2cbe
00000250: 9c17 d2bd 00f3 033d ada5 d6bc 3b69 2bbe
00000260: 16bc d9bd c7a0 9d3b e437 0dbe c4a5 e3bd
00000270: 9463 60bd c3e7 27be b88c 073e 16d1 f83d
00000280: 8f0f e0bd 40b1 343e 71f1 0bbc ddf2 7fbd
00000290: 8f47 86bd 5b1f c0bd b756 a7bc 1187 c33d
000002a0: 591e 8dbd 69d6 cd3d b5cf a7bb 71aa 1ebd
000002b0: 7e37 9ebd 93dc 753d a8be 3abe 9331 943d
000002c0: a949 27be c287 993d 93c3 52be c021 50be
000002d0: a5e5 393e 1b0a 383e 1adb 86bd d298 12be
000002e0: f35d 2dbe 9428 fd3d da49 883d a10b ccbd
000002f0: be35 c43d f56a 853d 024b 45bd 6793 45be

fc2.bias f4 [3]
-0.13117187 0.118268155 0.026618272
00000000: eb51 06be 9336 f23d 900e da3c

onnx::LSTM_282 f4 [2, 512]
-0.048082404 0.1305358 -0.01368665 0.07673643 0.055070274 0.013765571 -0.096459314 0.009984238
0.14633484 0.073820874 0.14653562 -0.02016222 0.028993232 0.1627837 0.06960579 -0.020182744
-0.024234667 0.13110629 -0.028602377 0.121419445 0.021926135 0.028878719 0.24367873 0.1784846
-0.0006630475 -0.071127854 0.109780565 0.17047355 0.070938215 0.20239128 0.14476594 0.13543728
0.18125065 0.059365503 0.14108376 0.13086839 0.14888299 0.14678967 0.06814962 -0.038283147
0.006126802 0.014102993 0.17320703 0.0018592749 0.05784877 0.06034855 -0.036924336 0.042872168
-0.02294732 0.014801949 -0.021136383 0.09113875 0.14829582 0.17038204 0.14622334 0.0503208
0.026950693 0.007723248 0.18108392 0.16604206 0.14728482 0.12883641 0.17152461 0.07742371
0.13272357 0.13655737 -0.0032208383 0.06648442 0.19846028 0.016650911 -0.08228978 0.010190455
0.08417363 0.20380577 0.012246365 0.09021172 -0.020200212 0.14709464 0.14149925 0.026695358
0.2208719 0.16408639 0.12877879 -0.04724114 -0.023698315 0.15461646 0.17726402 -0.0009601863
0.030054383 -0.06387031 -0.014880521 0.012575168 0.13154663 0.20128511 -0.03356746 0.1327699
0.050287154 0.08781955 0.15696006 0.079776675 0.05670166 0.1841242 0.053596612 -0.030483065
-0.010143343 0.1898325 0.21188645 -0.03940904 0.21127413 0.190944 0.0012591977 0.24291188
0.16269937 0.044336826 0.10873834 0.10857241 0.10950712 0.12698208 0.066911586 0.06432778
0.09821656 -0.00684033 -0.018450918 0.117079146 0.022286812 0.21319878 -0.008073411 0.10315159
0.090344414 -0.021518901 0.11519043 0.11176619 0.010851398 0.04339233 0.08888085 0.08689071
0.0030360818 0.09805675 0.028316155 0.123327404 0.09494795 0.10845339 0.1175078 0.08861181
0.10118349 0.11575948 -0.012763783 -0.08810645 -0.03378643 0.1197613 -0.08268483 -0.0811988
0.008734316 0.080920115 -0.014375493 0.06861873 0.04748191 -0.0167121 -0.023493424 -0.050889954
-0.08414896 -0.06082034 -0.05473596 0.058217287 0.035446852 -0.051022306 0.037454978 0.004154995
-0.021696076 0.025569454 -0.031032935 0.069208995 0.120995805 -0.08682829 0.099349216 0.06997517
-0.007259935 0.004976362 -0.008908957 -0.07858053 -0.100742325 -0.10152386 -0.056465194 0.030804545
0.023327231 0.0027676225 -0.07520002 -0.116283655 0.065004125 -0.08423422 0.058544546 0.04428205
-0.10212653 0.07453007 -0.086910404 0.06145888 -0.2354943 0.040351685 -0.013991836 -0.16647385
0.07585209 0.112420164 0.044667467 0.05803941 -0.09752268 0.025241582 -0.09418057 0.02586725
-0.03554648 -0.13383746 0.17874579 -0.11057716 0.15121311 -0.114928566 0.043230895 -0.15864797
-0.11653789 -0.13275304 0.18899813 0.104518205 -0.15386395 -0.09905126 -0.15507635 0.13561398
-0.09173927 0.054074854 -0.077121004 0.004950386 0.1921094 0.093125224 0.10462325 0.07816955
-0.1642949 -0.044174615 -0.2071864 0.13717246 0.10397579 0.045952305 0.10540984 -0.22334845
-0.052283376 -0.006298325 0.08355326 -0.016445689 0.08154976 0.14080153 -0.043425836 -0.14845169
-0.085127704 -0.03271733 -0.12211857 0.10507595 -0.017546715 0.046429105 0.08958592 -0.16155596
00000000: 0ef2 44bd 2dab 053e f93d 60bc fd27 9d3d
00000010: 5e91 613d fd88 613c 768c c5bd ee94 233c
00000020: cdd8 153e 662f 973d 6f0d 163e 3d2b a5bc
00000030: 3783 ed3c c5b0 263e 7b8d 8e3d 4856 a5bc
00000040: c887 c6bc ba40 063e 884f eabc c2aa f83d
00000050: 709e b33c 1093 ec3c eb86 793e abc4 363e
00000060: 5dd0 2dba 7bab 91bd a2d4 e03d 9e90 2e3e
00000070: 0e48 913d a93f 4f3e 863d 143e 12b0 0a3e
00000080: c599 393e 3e29 733d 4378 103e 5d02 063e
00000090: c874 183e 0850 163e 0792 8b3d cace 1cbd
000000a0: 57c3 c83b 3d10 673c 2f5d 313e eab2 f33a
000000b0: d5f2 6c3d 0b30 773d f93d 17bd ba9a 2f3d
000000c0: 05fc bbbc e083 723c 3526 adbc f4a6 ba3d
000000d0: dcda 173e a178 2e3e 92bb 153e 2f1d 4e3d
000000e0: b3c7 dc3c 4d13 fd3b 106e 393e ee06 2a3e
000000f0: d5d1 163e b1ed 033e 26a4 2f3e 5290 9e3d
00000100: b0e8 073e b2d5 0b3e b314 53bb fc28 883d
00000110: 2c39 4b3e 7e67 883c 8b87 a8bd def5 263c
00000120: 3963 ac3d 76b2 503e faa4 483c ecc0 b83d
00000130: ea7a a5bc fa9f 163e 2ee5 103e 39b0 da3c
00000140: 3e2c 623e 4306 283e 96de 033e ed7f 41bd
00000150: f822 c2bc c753 1e3e b384 353e 03b5 7bba
00000160: 9c34 f63c 70ce 82bd 6ecd 73bc 1408 4e3c
00000170: 29b4 063e af1d 4e3e 087e 09bd d5f4 073e
00000180: e7f9 4d3d bcda b33d 23ba 203e f461 a33d
00000190: 0040 683d 0e8b 3c3e 1f88 5b3d 9fb7 f9bc
000001a0: 4430 26bc 7363 423e c3f8 583e 606b 21bd
000001b0: 3f58 583e d386 433e aa0b a53a e4bd 783e
000001c0: aa9a 263e 889a 353d 35b2 de3d 365b de3d
000001d0: 4545 e03d 9707 023e f108 893d 48be 833d
000001e0: c425 c93d d924 e0bb 6126 97bc 31c7 ef3d
000001f0: d592 b63c c850 5a3e 5746 04bc 2441 d33d
00000200: 7e06 b93d 6848 b0bc f6e8 eb3d ace5 e43d
00000210: 10ca 313c 28bc 313d 2a07 b63d c2f3 b13d
00000220: 00f9 463b fad1 c83d 48f7 e73c 1493 fc3d
00000230: 1274 c23d d01c de3d eea7 f03d 1c7a b53d
00000240: 4a39 cf3d 4e13 ed3d 301f 51bc 2871 b4bd
00000250: a463 0abd 6a45 f53d aa56 a9bd 8e4b a6bd
00000260: 601a 0f3c 72b9 a53d 3087 6bbc fa87 8c3d
00000270: 647c 423d d0e7 88bc 4875 c0bc fc71 50bd
00000280: 4a56 acbd c01e 79bd d032 60bd 4075 6e3d
00000290: b830 113d c4fc 50bd 646a 193d a026 883b
000002a0: f8bb b1bc 0877 d13c c838 febc 72bd 8d3d
000002b0: a6cc f73d 08d3 b1bd 9a77 cb3d 244f 8f3d
000002c0: c0e4 edbb c010 a33b e0f6 11bc d4ee a0bd
000002d0: fe51 cebd beeb cfbd 0c48 67bd d059 fc3c
000002e0: c018 bf3c 0061 353b 7802 9abd 2026 eebd
000002f0: e220 853d fe82 acbd 68cc 6f3d 1861 353d
00000300: b727 d1bd 39a3 983d 15fe b1bd 4ebc 7b3d
00000310: 6b25 71be cf47 253d 043e 65bc 1f78 2abe
00000320: 5758 9b3d 8b3c e63d 3cf5 363d bbba 6d3d
00000330: f9b9 c7bd 6fc7 ce3c bee1 c0bd 8ee7 d33c
00000340: 3099 11bd b00c 09be 2309 373e 4776 e2bd
00000350: 9cd7 1a3e ab5f ebbd e112 313d 9d74 22be
00000360: 6bab eebd 6af0 07be ba88 413e a40d d63d
00000370: 838e 1dbe 63db cabd 56cc 1ebe 64de 0a3e
00000380: cce1 bbbd 987d 5d3d 9ef1 9dbd d936 a23b
00000390: 54b8 443e 70b8 be3d b744 d63d 5b17 a03d
000003a0: ec3c 28be 71f0 34bd ac28 54be f076 0c3e
000003b0: 42f1 d43d 7c38 3c3d 1de1 d73d 75b5 64be
000003c0: 1827 56bd 2e62 cebb f91d ab3d 1cb9 86bc
000003d0: 9003 a73d 472e 103e 4adf 31bd b803 18be
000003e0: 6f57 aebd 9b02 06bd 4d19 fabd 0f32 d73d
000003f0: 21be 8fbc 722c 3e3d d378 b73d ed6e 25be

onnx::LSTM_283 f4 [2, 256, 9]
-0.05919933 0.08862117 -0.06275504 -0.0012410365 0.011632429 0.16375351 -0.047966763 -0.09617662
0.012759246 0.015173993 -0.0589717 -0.045718215 -0.014966711 0.074159965 0.1636311 -0.044395648
0.06760809 0.16086826 0.11330685 0.07158789 0.064213835 0.005295814 -0.109104306 -0.13085158
0.103965715 -0.13649769 -0.16863328 -0.0020327405 -0.13438213 0.07891594 0.03705639 -0.1302229
0.068084866 -0.011715814 -0.061251897 -0.12313541 -0.01189473 0.1391392 0.19304702 0.04866566
-0.08348356 -0.081460126 0.080942094 0.09393863 0.02926653 0.0007769781 0.20289977 0.12269333
-0.044436187 0.049477417 0.087983795 0.15526485 0.08649009 0.20651272 0.089014 -0.00094439427
-0.04829337 0.08026975 -0.080756694 -0.15185146 -0.091573596 0.081873015 0.028793765 -0.061925147
-0.03479805 -0.05328264 0.088992745 0.10226842 0.023266498 -0.010653895 0.038969696 -0.04780267
0.10845959 0.14428209 0.031787384 -0.077467754 0.053478062 0.0034102509 -0.050014682 0.07343803
-0.034833163 0.065592125 0.044082236 -0.122493066 0.06648823 -0.07389974 0.03140167 0.10123963
-0.09188129 -0.12401418 0.025681583 0.065158635 -0.19514582 0.03450203 -0.130853 0.042562943
0.062107146 -0.1826608 -0.014929735 -0.12611537 0.1984949 0.1777753 0.04017948 0.0412007
0.019532727 0.070179366 0.02699649 0.15849194 0.06669918 0.051473957 0.062995434 -0.004603672
-0.08700511 -0.072603926 -0.1332774 -0.099126294 -0.18054937 0.17868713 -0.048448432 0.10700945
0.082513206 -0.077297196 0.024175236 -0.08445252 -0.08919213 -0.0644719 0.15404394 0.1559276
0.033669908 0.06821969 -0.029991956 -0.122652 -0.0027245572 -0.06534539 0.12901613 -0.09349021
-0.11479591 0.011174309 0.041655134 -0.034121376 0.033108205 -0.024784477 -0.07896152 -0.13530682
0.013298646 0.09396113 0.14864235 0.006001116 0.06438836 -0.043449167 -0.12547405 0.1116224
0.00087363884 0.13012372 0.12790893 -0.08062939 -0.015015798 -0.09869109 0.11247049 0.20461348
-0.10732232 -0.10056528 0.06379917 -0.058737364 -0.14090829 -0.031673674 0.102010705 0.031327557
0.002704134 0.04175766 -0.08269858 0.15430272 -0.08248109 -0.037307285 -0.05030274 -0.08938851
-0.033235475 -0.035407748 0.039429974 -0.0819258 0.17297678 -0.02096803 -0.089063995 0.004283636
0.031916264 0.028396634 -0.03278921 -0.11270078 -0.08782311 -0.06644536 0.07230552 0.020722862
-0.061497696 0.018587789 0.055288453 -0.1041773 0.006857443 -0.033229917 -0.0021300926 -0.031680595
0.07651631 -0.0014820127 0.06588562 -0.038940206 0.1430788 0.16392156 0.0750224 0.09554158
-0.13542223 -0.14223784 0.10688862 0.085737474 -0.118143186 0.011603437 -0.16906725 -0.11038377
0.030897066 -0.035812322 -0.14392649 0.06327084 -0.06416832 0.08712928 0.032370478 0.018775837
-0.043478545 0.11951348 0.044541374 -0.15306257 0.024475051 0.059277475 0.09476747 -0.015317585
0.067637086 0.041877862 0.02279841 -0.16924767 -0.024470672 0.16771565 0.05921098 0.00504756
-0.06927987 -0.051618036 -0.046605438 0.13629155 -0.09977571 -0.14240071 -0.024448529 0.049215857
0.013346825 0.040904306 0.021532344 0.109347016 0.17042498 -0.114233345 0.016275974 0.0033215473
00000000: ff7a 72bd 047f b53d b785 80bd 46aa a2ba
00000010: f295 3e3c 00af 273e cc78 44bd 3ff8 c4bd
00000020: 280c 513c 579c 783c 4f8c 71bd 0643 3bbd
00000030: f036 75bc 2ee1 973d e98e 273e 36d8 35bd
00000040: 1c76 8a3d a6ba 243e 6c0d e83d ac9c 923d
00000050: 8b82 833d 8288 ad3b 1472 dfbd f5fd 05be
00000060: faeb d43d 0dc6 0bbe 34ae 2cbe ba37 05bb
00000070: 789b 09be ae9e a13d 71c8 173d 2759 05be
00000080: 1470 8b3d aff3 3fbc 45e3 7abd 6b2e fcbd
00000090: 1de2 42bc 827a 0e3e 1eae 453e a555 473d
000000a0: 6ef9 aabd 91d4 a6bd f8c4 a53d e562 c03d
000000b0: 5dc0 ef3c 1eae 4b3a f5c4 4f3e a446 fb3d
000000c0: b802 36bd d5a8 4a3d d930 b43d c0fd 1e3e
000000d0: b721 b13d 1278 533e f94c b63d 3a91 77ba
000000e0: 45cf 45bd 7764 a43d c463 a5bd f37e 1bbe
000000f0: f08a bbbd 0aad a73d e7e0 eb3c 39a5 7dbd
00000100: 6688 0ebd e63e 5abd d441 b63d 1b72 d13d
00000110: 6299 be3c ad8d 2ebc b09e 1f3d bccc 43bd
00000120: 1020 de3d afbe 133e 7d33 023d 6aa7 9ebd
00000130: d00b 5b3d 847e 5f3b 32dc 4cbd ae66 963d
00000140: 38ad 0ebd 2a55 863d 938f 343d a5dd fabd
00000150: fb2a 883d bf58 97bd 0a9f 003d b956 cf3d
00000160: 422c bcbd 25fb fdbd 2f62 d23c e471 853d
00000170: 4ed4 47be 0052 0d3d 54fe 05be 7b56 2e3d
00000180: 1064 7e3d 6f0b 3bbe d99b 74bc 6324 01be
00000190: 3f42 4b3e ba0a 363e 3d93 243d 11c2 283d
000001a0: 1903 a03c 33ba 8f3d be27 dd3c b64b 223e
000001b0: 9499 883d 5bd6 523d c003 813d 66da 96bb
000001c0: bc2f b2bd 5eb1 94bd df79 08be ba02 cbbd
000001d0: efe1 38be c2f9 363e dd71 46bd c527 db3d
000001e0: affc a83d fe4d 9ebd 250b c63c 71f5 acbd
000001f0: 5daa b6bd d809 84bd b2bd 1d3e 7cab 1f3e
00000200: 75e9 093d c4b6 8b3d b1b1 f5bc f930 fbbd
00000210: 7c8e 32bb ced3 85bd ce1c 043e cc77 bfbd
00000220: 1e1a ebbd 7314 373c 939e 2a3d dbc2 0bbd
00000230: 789c 073d d108 cbbc 94b6 a1bd df8d 0abe
00000240: 90e2 593c b16e c03d b335 183e 02a5 c43b
00000250: 0bde 833d c1f7 31bd 457c 00be 499a e43d
00000260: e904 653a 273f 053e 8ffa 023e 0621 a5bd
00000270: d204 76bc 8e1e cabd ee56 e63d 3286 513e
00000280: cecb dbbd 2bf5 cdbd 24a9 823d 9796 70bd
00000290: 434a 10be 41bc 01bd fdea d03d 5351 003d
000002a0: d737 313b 150a 2b3d e05d a9bd 8801 1e3e
000002b0: d9eb a8bd 86cf 18bd 3f0a 4ebd 5311 b7bd
000002c0: ec21 08bd b707 11bd 5381 213d b7c8 a7bd
000002d0: d320 313e 25c5 abbc 2f67 b6bd be5d 8c3b
000002e0: a1ba 023d 0fa0 e83c fb4d 06bd abcf e6bd
000002f0: 9adc b3bd 8114 88bd eb14 943d fec2 a93c
00000300: 02e5 7bbd 6b45 983c 2576 623d e95a d5bd
00000310: 67b4 e03b 181c 08bd 0699 0bbb 83c3 01bd
00000320: 95b4 9c3d 1840 c2ba 0aef 863d c47f 1fbd
00000330: 4083 123e 0edb 273e 58a5 993d 4eab c33d
00000340: 20ac 0abe cca6 11be 6ce8 da3d 2197 af3d
00000350: 0ef5 f1bd 581c 3e3c f71f 2dbe e310 e2bd
00000360: d81b fd3c f1af 12bd 7761 13be 2494 813d
00000370: ae6a 83bd d670 b23d e896 043d c9cf 993c
00000380: 8f16 32bd 7cc3 f43d 0471 363d 6fbc 1cbe
00000390: e77f c83c f0cc 723d 7315 c23d 9cf6 7abc
000003a0: 5085 8a3d 1f88 2b3d bbc3 ba3c 434f 2dbe
000003b0: b876 c8bc a7bd 2b3e 3687 723d 0166 a53b
000003c0: 9be2 8dbd 6f6d 53bd 58e5 3ebd 0390 0b3e
000003d0: 3557 ccbd 7ed1 11be 4848 c8bc 9196 493d
000003e0: a4ac 5a3c 468b 273d 9964 b03c 54f1 df3d
000003f0: e383 2e3e 2cf3 e9bd 3155 853c 51ae 593b

onnx::LSTM_284 f4 [2, 256, 64]
0.06103763 0.07324965 0.074943244 0.028831363 0.114698276 0.05353266 -0.0032853633 0.025922239
-0.045706704 0.08986083 -0.08816087 0.12078987 0.021960184 0.04898469 0.069153026 0.05491124
0.052246302 0.11589104 -0.081719294 0.08189878 -0.100203425 0.043366686 0.07728012 0.10601848
0.0602677 0.059283137 0.10220517 -0.03150682 -0.0669176 -0.04743825 -0.008513823 -0.025565252
-0.111172095 -0.08998889 0.020508558 0.081949174 -0.054971844 0.09180561 0.07684681 0.0606021
0.11975466 -0.0623132 -0.05320327 0.0049589425 0.0672383 -0.006845802 -0.06941213 0.10869083
0.11117993 0.10566142 -0.019678786 0.013550773 -0.08919363 -0.0242728 -0.107900366 0.09598318
-0.0638133 0.03320089 -0.0047222376 -0.0505331 -0.028052703 -0.017321482 -0.007852167 0.059254155
0.057274237 -0.06815261 0.0694136 -0.00058209896 -0.008929938 0.050298885 0.054292306 -0.03789337
-0.11183055 -0.075278774 0.049975976 0.04190339 -0.10380964 0.09232792 -0.05738692 -0.11137357
-0.0042848736 0.06761694 -0.07540159 -0.11228357 -0.05874987 -0.076804355 -0.011732817 -0.048987925
-0.07823755 0.09700334 -0.098211944 -0.010431752 -0.11574088 -0.12015535 0.009319842 0.013340786
-0.040328622 0.012990221 0.031238973 -0.010822937 -0.0951134 0.124304354 0.015691906 -0.10914661
-0.032177955 -0.025961578 -0.10813765 -0.01005207 -0.03460616 -0.111205325 0.03438224 -0.10580042
0.048368305 0.04027769 0.03984584 0.0709973 -0.08324894 -0.124724895 -0.11877701 -0.04467456
0.009499803 -0.07137765 0.042261153 0.016929895 0.10679102 0.0712831 0.103704154 -0.11336622
-0.019108653 0.02997902 0.11389084 0.028977424 -0.092337325 0.11850576 -0.11327119 0.06854105
0.05870828 -0.075932816 0.116273284 -0.030549914 0.10063021 -0.09735024 0.057427302 -0.0461213
-0.07296027 -0.047813684 0.0069179833 -0.124249846 0.09222835 -0.117967755 0.041821748 -0.014356956
0.010336161 0.032078505 -0.09821066 -0.05115232 0.047947854 -0.048076242 -0.08972713 0.047540784
-0.06351942 0.011780709 -0.12294395 -0.07392818 0.07761042 0.05029489 0.10710664 -0.08650407
0.054936722 0.054565623 0.063749135 -0.08739281 -0.07994993 0.06810376 -0.053298533 -0.038697153
-0.07019724 0.05489734 -0.11996038 0.03502527 -0.116875425 0.069918945 0.0717435 -0.060220554
-0.08172639 -0.08347206 0.0809841 0.014269382 0.08682378 0.047183916 0.06916545 -0.09214082
0.12097679 -0.017885908 -0.0047658235 0.097522035 -0.074787006 -0.049369156 0.076488346 -0.11960772
0.012935653 -0.106372595 -0.074495286 0.043326497 0.08577557 0.0979792 0.11010522 -0.033515543
-0.12142469 0.10977495 0.040209487 -0.098496094 0.120086595 -0.091321826 -0.04225616 0.007581502
0.010515586 0.07944372 -0.04926659 0.10324654 -0.10898204 0.051228464 -0.08608328 -0.10250151
0.085076824 -0.056856483 -0.10005768 -0.026631072 0.108354434 -0.123205885 0.070546076 0.012983099
0.024997279 -0.051843688 -0.11217603 0.065684244 -0.0012910217 0.09131184 0.022167534 0.049485132
-0.044338733 -0.09995945 0.06196615 -0.0017924458 0.1125883 -0.066770524 -0.07267973 -0.08498654
0.07278009 -0.09829694 0.08100152 0.025618732 -0.018808216 -0.051173 -0.113810256 0.014934406
00000000: 9802 7a3d ea03 963d d87b 993d c02f ec3c
00000010: eee6 ea3d 1045 5b3d 404f 57bb e05a d43c
00000020: f436 3bbd f408 b83d b08d b4bd ae60 f73d
00000030: d8e5 b33c 2ca4 483d 1aa0 8d3d 9cea 603d
00000040: 3800 563d 4858 ed3d 725c a7bd 8cba a73d
00000050: 7437 cdbd 44a1 313d 0a45 9e3d 3820 d93d
00000060: 44db 763d e0d2 723d f250 d13d 4c0d 01bd
00000070: 180c 89bd 9c4e 42bd 907d 0bbc 386e d1bc
00000080: 32ae e3bd 184c b8bd 9001 a83c f8d4 a73d
00000090: 282a 61bd 9404 bc3d dc61 9d3d e839 783d
000000a0: ee41 f53d 203c 7fbd aceb 59bd a07e a23b
000000b0: 3cb4 893d c052 e0bb f227 8ebd 4c99 de3d
000000c0: 4eb2 e33d 0465 d83d 6835 a1bc 1004 5e3c
000000d0: 26ab b6bd c0d7 c6bc defa dcbd d492 c43d
000000e0: 8cb0 82bd a8fd 073d 00bd 9abb ccfb 4ebd
000000f0: c8ce e5bc c8e5 8dbc 60a6 00bc 7cb4 723d
00000100: 6498 6a3d 9893 8bbd b828 8e3d 0098 18ba
00000110: e04e 12bc 3406 4e3d 9c61 5e3d 1436 1bbd
00000120: 6a07 e5bd c22b 9abd 9cb3 4c3d e4a2 2b3d
00000130: 269a d4bd 6c16 bd3d 8c0e 6bbd d417 e4bd
00000140: 2068 8cbb c07a 8a3d 266c 9abd eef4 e5bd
00000150: b4a3 70bd 9a4b 9dbd 003b 40bc 90a7 48bd
00000160: 023b a0bd b0a9 c63d 5823 c9bd f0e9 2abc
00000170: 8e09 edbd 0214 f6bd 40b2 183c 5093 5a3c
00000180: a02f 25bd f0d4 543c e0e8 ff3c b052 31bc
00000190: d0ca c2bd 4893 fe3d 508c 803c 4288 dfbd
000001a0: 08cd 03bd 60ad d4bc 4677 ddbd 70b1 24bc
000001b0: 30bf 0dbd 9ebf e3bd 64d4 0c3d e4ad d8bd
000001c0: d81d 463d 38fa 243d 6435 233d 0867 913d
000001d0: 6c7e aabd c46f ffbd 5c41 f3bd acfc 36bd
000001e0: 10a5 1b3c 722e 92bd 081a 2d3d 90b0 8a3c
000001f0: 40b5 da3d e0fc 913d d862 d43d 8c2c e8bd
00000200: c089 9cbc 9096 f53c 9a3f e93d 1062 ed3c
00000210: 5a1b bdbd 26b3 f23d bafa e7bd 405f 8c3d
00000220: 1878 703d aa82 9bbd b020 ee3d d043 fabc
00000230: 3617 ce3d 905f c7bd e438 6b3d b0e9 3cbd
00000240: 326c 95bd 48d8 43bd 40b0 e23b b476 febd
00000250: 38e2 bc3d 1499 f1bd 484d 2b3d 7039 6bbc
00000260: 0059 293c c064 033d ac22 c9bd 1885 51bd
00000270: f864 443d 98eb 44bd dcc2 b7bd 20ba 423d
00000280: 7816 82bd e003 413c 0aca fbbd a867 97bd
00000290: 36f2 9e3d 0402 4e3d ba5a db3d 0c29 b1bd
000002a0: 5405 613d 3480 5f3d e88e 823d 00fb b2bd
000002b0: cabc a3bd fc79 8b3d 904f 5abd e880 1ebd
000002c0: 92c3 8fbd 08dc 603d caad f5bd a876 0f3d
000002d0: 625c efbd aa31 8f3d 42ee 923d d4a9 76bd
000002e0: 2a60 a7bd 66f3 aabd feda a53d 20ca 693c
000002f0: aad0 b13d ec43 413d 9ea6 8d3d 54b4 bcbd
00000300: aec2 f73d 7885 92bc a02a 9cbb a2b9 c73d
00000310: ee29 99bd 5037 4abd eca5 9c3d e4f4 f4bd
00000320: 10f0 533c e0d9 d9bd fc90 98bd 2077 313d
00000330: 1aab af3d 52a9 c83d d87e e13d 9847 09bd
00000340: 82ad f8bd b0d1 e03d b4b2 243d 52b8 c9bd
00000350: f6ef f53d f006 bbbd cc14 2dbd 406e f83b
00000360: 9049 2c3c 64b3 a23d c4cb 49bd ec72 d33d
00000370: fa31 dfbd f0d4 513d 6e4c b0bd 50ec d1bd
00000380: c23c ae3d 58e2 68bd 0aeb ccbd 6829 dabc
00000390: eee8 dd3d 5e53 fcbd 767a 903d 10b7 543c
000003a0: 18c7 cc3c 0c5a 54bd 8cbc e5bd 7685 863d
000003b0: 8037 a9ba b401 bb3d b098 b53c ecb0 4a3d
000003c0: 889c 35bd 8ab7 ccbd 38d0 7d3d 80f0 eaba
000003d0: b294 e63d fcbe 88bd 1cd9 94bd 6c0d aebd
000003e0: ba0d 953d e84f c9bd 20e4 a53d 60de d13c
000003f0: b013 9abc c89a 51bd 5a15 e9bd 70af 743c

onnx::LSTM_302 f4 [1, 256, 128]
-0.017423913 -0.11204979 -0.024161417 0.11413142 -0.016237937 0.09555205 0.061573967 -0.016565492
0.061623156 0.042909544 0.20389628 0.0636379 0.0054995124 -0.11939286 -0.14613084 0.023111448
0.07316331 -0.086541615 0.073669225 -0.019465383 -0.023285879 -0.14253885 -0.024525207 -0.12325571
-0.008366151 -0.03169964 0.16507398 0.1197267 -0.093847886 -0.16981003 -0.10212433 -0.09952162
0.0019756753 0.012924467 0.02866365 0.02079223 -0.07226819 0.15941745 -6.783581e-05 0.20169455
-0.1269143 0.050228585 -0.13818054 -0.020602042 0.05522571 -0.11747569 0.12852508 -0.14884584
-0.071294315 0.13307247 0.089542046 -0.1961395 -0.16299409 0.03970816 -0.0669482 -0.019893445
0.010560363 0.1654291 -0.120450445 0.02091783 -0.034087613 0.081915095 -0.18660441 -0.1841264
-0.0350419 0.09114212 0.16837098 0.0003298875 -0.12782846 0.029973017 -0.106368646 -0.065252304
-0.20023626 -0.0631072 0.116504215 0.16604252 -0.13888194 0.025356892 0.093508124 -0.107156366
0.06093807 -0.033706833 0.074180655 -0.14563586 -0.04537381 0.11719072 0.06943618 0.19276983
0.17106095 -0.16545475 -0.04712347 0.1382865 -0.1736984 0.049216136 -0.05152293 -0.03779856
-0.09235292 0.026893515 -0.030614534 -0.036096044 -0.04898157 -0.06597179 0.027110942 -0.14780463
-0.12854381 0.16719985 0.044956844 -0.107887015 -0.17840202 -0.08029368 0.009856454 0.17152758
-0.18151453 -0.009135428 -0.19347131 0.17384198 0.008873312 -0.046035923 -0.0002658287 0.018057622
-0.14755544 -0.034930855 -0.20479368 -0.045338087 0.042850923 -0.10224384 -0.043650057 0.080420986
-0.1384483 0.16405834 -0.017190762 -0.020164477 -0.23736183 0.18983413 -0.1815714 -0.11645543
0.20932814 0.05274606 0.04750123 0.23741956 -0.15141355 -0.07424149 -0.21461493 0.09956827
0.057442702 -0.021429142 0.16364217 -0.1087593 0.16224924 0.08532069 0.05524132 -0.15757725
-0.04705141 0.08340389 -0.020484654 0.12694436 -0.109030254 0.0041382224 -0.028615637 0.15046494
-0.012481351 -0.1716277 -0.022940086 0.17427343 0.059279505 -0.07834648 0.029598504 0.111765355
-0.12758452 -0.072984144 -0.11241894 0.031932756 0.029811546 -0.0825775 0.23849389 -0.17754939
-0.058216866 -0.13107498 -0.021263536 -0.17008895 0.12154779 0.041352212 0.03424171 0.025828518
0.058881737 -0.040728107 0.02025243 0.17517383 -0.063942686 -0.017742023 -0.09115255 -0.059195466
-0.12195785 -0.013249252 0.11628225 -0.14427033 0.1637384 0.15222698 -0.07306835 0.016210472
-0.07112985 -0.19900821 0.08531933 -0.0024528103 -0.0065409923 0.08181006 -0.035571937 0.050985567
-0.024499897 -0.13299535 -0.02722369 0.0079354895 -0.105523065 -0.020803671 0.05018245 0.04592583
0.015813654 -0.16034265 0.03021458 0.06421478 -0.0591636 -0.11129983 -0.122734204 -0.01251742
0.10905421 0.02306389 0.18611456 0.047834896 0.00292102 -0.092676155 0.15213057 -0.19428894
-0.07674645 -0.06110565 0.0042341403 0.038668275 0.051233985 -0.16271162 -0.045034282 0.09142911
-0.016677868 0.14537145 0.1115092 0.031574 0.0042336327 0.09206315 -0.070085734 0.08095643
-0.2119913 -0.17949404 -0.06412817 0.22267032 0.09160795 -0.14053017 -0.010248385 0.05581734
00000000: 98bc 8ebc 5c7a e5bd 2aee c5bc bcbd e93d
00000010: 6c05 85bc cbb0 c33d fc34 7c3d 5bb4 87bc
00000020: 9068 7c3d ebc1 2f3d 30ca 503e 9654 823d
00000030: 4135 b43b 3e84 f4bd 53a3 15be 3854 bd3c
00000040: a5d6 953d bb3c b1bd e4df 963d de75 9fbc
00000050: 07c2 bebc b4f5 11be 16e9 c8bc 7d6d fcbd
00000060: 2e12 09bc 7bd7 01bd 2709 293e 4633 f53d
00000070: 5233 c0bd aee2 2dbe 9026 d1bd fed1 cbbd
00000080: 557a 013b 25c1 533c 08d0 ea3c 7754 aa3c
00000090: 5801 94bd 543e 233e 1343 8eb8 0489 4e3e
000000a0: d2f5 01be 7dbc 4d3d 337f 0dbe 9dc5 a8bc
000000b0: 5b34 623d 1897 f0bd 149c 033e 0b6b 18be
000000c0: c102 92bd 2644 083e d261 b73d cbd8 48be
000000d0: ece7 26be 06a5 223d 231c 89bd 94f7 a2bc
000000e0: 5f05 2d3c 3f66 293e b9ae f6bd de5b ab3c
000000f0: 749f 0bbd 1ac3 a73d 3a15 3fbe a28b 3cbe
00000100: 1888 0fbd b8a8 ba3d 7169 2c3e c0f4 ac39
00000110: 77e5 02be f989 f53c ced7 d9bd 00a3 85bd
00000120: bc0a 4dbe 593e 81bd c399 ee3d 0d07 2a3e
00000130: 1137 0ebe 42b9 cf3c 3081 bf3d cc74 dbbd
00000140: 339a 793d 2d10 0abd 07ec 973d 9121 15be
00000150: e3d9 39bd b001 f03d 8e34 8e3d 7465 453e
00000160: 9a2a 2f3e f86c 29be 8a04 41bd fa9a 0d3e
00000170: fedd 31be dc96 493d b509 53bd aad2 1abd
00000180: 8723 bdbd ca4f dc3c 55cb fabc 72d9 13bd
00000190: e6a0 48bd 381c 87bd c417 de3c 195a 17be
000001a0: fda0 03be 7036 2b3e ab24 383d def3 dcbd
000001b0: 05af 36be 0371 a4bd f77c 213c eda4 2f3e
000001c0: f2de 39be c3ac 15bc 581d 46be a203 323e
000001d0: 5e61 113c 2a90 3cbd ed5e 8bb9 94ed 933c
000001e0: c618 17be a813 0fbd 6fb5 51be 6eb4 39bd
000001f0: 7384 2f3d 3865 d1bd 67ca 32bd c2b3 a43d
00000200: 64c5 0dbe e9fe 273e a4d3 8cbc f92f a5bc
00000210: fb0e 73be e163 423e daed 39be 2f80 eebd
00000220: 1e5a 563e 410c 583d a690 423d 1d1e 733e
00000230: 270c 1bbe ec0b 98bd 04c4 5bbe 73ea cb3d
00000240: 0a49 6b3d 2b8c afbc d091 273e 32bd debd
00000250: aa24 263e 9dbc ae3d b944 623d ee5b 21be
00000260: fbb8 40bd a9cf aa3d 6fcf a7bc b4fd 013e
00000270: 414b dfbd ed99 873b 576b eabc 7b13 1a3e
00000280: 957e 4cbc 2cbf 2fbe d9ec bbbc bc74 323e
00000290: 11cf 723d 1f74 a0bd 9078 f23c 3ce5 e43d
000002a0: 84a5 02be b678 95bd e73b e6bd eccb 023d
000002b0: 5837 f43c 641e a9bd be37 743e 82cf 35be
000002c0: cf74 6ebd 8538 06be de30 aebc cc2b 2ebe
000002d0: 0cee f83d f060 293d 0941 0c3d 5496 d33c
000002e0: fa2d 713d 84d2 26bd 6de8 a53c c560 333e
000002f0: 62f4 82bd b857 91bc 30ae babd f276 72bd
00000300: 0ac5 f9bd 6413 59bc 6325 ee3d 9abb 13be
00000310: 0aab 273e 64e1 1b3e dca4 95bd d3cb 843c
00000320: 87ac 91bd cfc8 4bbe e7bb ae3d 54bf 20bb
00000330: d255 d6bb 088c a73d e1b3 11bd 3ed6 503d
00000340: 02b4 c8bc ef2f 08be 3704 dfbc db03 023c
00000350: 7a1c d8bd 766c aabc 1d8c 4d3d b91c 3c3d
00000360: a38b 813c dd30 24be 9184 f73c 0a83 833d
00000370: 8855 72bd 2af1 e3bd 125c fbbd dd15 4dbc
00000380: d057 df3d 7cf0 bc3c d194 3e3e 86ee 433d
00000390: 956e 3f3b ffcc bdbd 1ec8 1b3e aef3 46be
000003a0: 3e2d 9dbd eb49 7abd 8bbe 8a3b a062 1e3d
000003b0: bada 513d e09d 26be de75 38bd 2f3f bb3d
000003c0: 06a0 88bc 41dc 143e ef5e e43d bd53 013d
000003d0: 49ba 8a3b 9b8b bc3d 1c89 8fbd 7ccc a53d
000003e0: 3f14 59be 49cd 37be a155 83bd b003 643e
000003f0: f39c bb3d 24e7 0fbe d8e8 27bc b9a0 643d

onnx::LSTM_303 f4 [1, 256, 64]
0.09249647 -0.041607648 0.089617446 0.013793856 0.028810397 -0.07941869 0.04653591 0.121678025
0.080013424 -0.007189557 -0.035139143 0.03426613 -0.09798761 -0.07770191 -0.060815394 0.075343266
0.08457175 -0.06381889 0.07229486 -0.03480512 0.08102372 0.12044385 -0.096942276 -0.08087312
0.038800225 0.03361316 0.021688387 -0.11964996 0.07345456 0.058728427 -0.11459099 -0.11342035
0.10058223 -0.057382718 -0.100309685 0.052725628 -0.062909365 0.09630732 0.101431 0.03216842
0.09022963 -0.112487435 0.09802091 0.06172587 0.0480019 0.06323758 0.055636033 -0.04376088
0.098860815 0.08877012 -0.07761228 -0.05606903 -0.080293834 -0.046923593 -0.038382903 -0.10256176
-0.11069067 0.007841051 0.013354793 -0.10719597 -0.10314931 -0.023295626 0.044487566 -0.080540985
0.06139441 -0.070576966 -0.04927759 0.022802696 -0.05899924 0.008757338 0.117803484 0.043018505
0.010529146 0.016845673 0.04986757 0.061353788 0.08337444 -0.08031283 0.08080645 0.04566382
0.06365524 0.11410594 0.038742065 0.073996305 -0.014615521 -0.06424844 -0.08131608 0.037818298
0.09492025 0.10680857 -0.10351512 0.027180836 -0.0072368085 0.1192372 -0.10445188 -0.06374362
-0.019478083 0.10723825 0.02273713 0.099471316 0.017148033 -0.10281272 -0.0076172203 -0.005185947
-0.026995987 -0.050431892 -0.00018665195 0.0102119 -0.0905561 0.044132903 -0.04390435 -0.038626447
-0.12185404 -0.07428089 -0.117100924 0.080215245 0.11605251 0.12212622 0.026191786 -0.116020724
0.03535226 -0.008229852 0.0489285 0.0142547935 0.009320989 0.032325447 0.02149035 0.116022974
0.0617923 -0.011047408 0.111435235 -0.073029146 0.09014657 0.0039075315 -0.12204364 -0.11001545
0.06636311 -0.06592846 -0.0012613088 -0.012369707 -0.0554803 0.08690384 0.000773564 -0.014384761
-0.014037937 0.0011359304 0.09001404 -0.04004717 -0.05837874 0.013512477 0.07716285 -0.09777661
-0.1032708 -0.005907327 0.020347059 0.00013518333 0.022270784 0.104469046 0.025931135 -0.06866966
0.117722765 -0.067195 0.11325404 0.03889896 -0.09675728 0.04140021 -0.094919026 0.005108103
-0.012183771 0.071516454 0.059731156 -0.10122043 0.039826438 -0.07243709 0.0783416 -0.08242771
-0.04641305 0.09588295 0.061961323 0.049992174 0.04306218 -0.007630959 -0.06581798 -0.119504616
-0.01981756 0.10980731 0.08996603 -0.025458127 -0.041524902 -0.03455414 -0.08886331 0.10131222
-0.11565381 -0.113049045 -0.012441248 0.015593633 0.0981625 -0.032263637 -0.01569724 -0.11338584
0.117782176 -0.116735026 -0.07723498 -0.047125176 -0.0019842535 -0.11658873 -0.07936628 -0.02595374
-0.07591806 -0.111246765 -0.1065512 -0.11209059 -0.1107942 -0.012065098 -0.018876404 0.0827411
0.09309338 0.026356772 -0.057019606 0.04168129 0.024617895 0.058652043 0.10811202 0.0700658
-0.021739915 0.041600868 -0.010274515 -0.014211193 -0.034091145 -0.11882369 0.029836684 0.12126167
0.10481802 0.079636574 -0.060683116 0.10092907 -0.120648354 0.027262777 0.0047961026 -0.09420544
-0.11595595 0.028944105 -0.10917468 0.10630992 0.0034781694 -0.10474475 -0.086536825 -0.019076556
-0.10264674 -0.07921572 -0.014545903 -0.11096792 -0.005794853 -0.021853536 0.07651864 0.07080759
00000000: ca6e bd3d c86c 2abd 5a89 b73d a0ff 613c
00000010: c803 ec3c 44a6 a2bd 709c 3e3d 5432 f93d
00000020: 14de a33d 6096 ebbb 10ee 0fbd a45a 0c3d
00000030: baad c8bd 2e22 9fbd 9019 79bd 924d 9a3d
00000040: f433 ad3d 7ab3 82bd 540f 943d d08f 0ebd
00000050: c4ef a53d 44ab f63d ac89 c6bd cea0 a5bd
00000060: fcec 1e3d f4ad 093d d8ab b13c 0a0b f5bd
00000070: 586f 963d 388d 703d aeae eabd ee48 e8bd
00000080: 0efe cd3d 240a 6bbd 2a6f cdbd d4f6 573d
00000090: a0d6 80bd c63c c53d 0ebb cf3d 08c3 033d
000000a0: 50ca b83d d05f e6bd 30bf c83d 44d4 7c3d
000000b0: a49d 443d b482 813d 9ce2 633d 9c3e 33bd
000000c0: 8a77 ca3d 1ccd b53d 30f3 9ebd a4a8 65bd
000000d0: 1871 a4bd f432 40bd 6437 1dbd e60b d2bd
000000e0: cab1 e2bd c077 003c 10ce 5a3c 9089 dbbd
000000f0: f23f d3bd 78d6 bebc 9838 363d acf2 a4bd
00000100: b478 7b3d a88a 90bd 4cd7 49bd b8cc ba3c
00000110: 30a9 71bd f07a 0f3c f442 f13d 2c34 303d
00000120: 7082 2c3c f0ff 893c f041 4c3d 1c4e 7b3d
00000130: 38c0 aa3d 0e7b a4bd da7d a53d fc09 3b3d
00000140: ae5d 823d 60b0 e93d 00b0 1e3d 608b 973d
00000150: f075 6fbc b094 83bd 0c89 a6bd 5ce7 1a3d
00000160: 8c65 c23d 74be da3d bcff d3bd 58aa de3c
00000170: c022 edbb a232 f43d deea d5bd 048c 82bd
00000180: 8090 9fbc ba9f db3d 3843 ba3c 9eb7 cb3d
00000190: 087a 8c3c 7a8f d2bd e099 f9bb e0ee a9bb
000001a0: b026 ddbc ac91 4ebd 00b8 43b9 d04f 273c
000001b0: 7a75 b9bd b4c4 343d 0cd5 33bd c436 1ebd
000001c0: 9c8e f9bd 9420 98bd 9cd2 efbd e447 a43d
000001d0: f0ac ed3d 501d fa3d 2890 d63c 469c edbd
000001e0: 88cd 103d 80d6 06bc 4069 483d f08c 693c
000001f0: 10b7 183c b067 043d 880c b03c 749d ed3d
00000200: ec19 7d3d 3000 35bc 2838 e43d 4e90 95bd
00000210: c49e b83d c00a 803b 04f2 f9bd c84f e1bd
00000220: 62e9 873d 8005 87bd 8052 a5ba 50aa 4abc
00000230: 503f 63bd a4fa b13d 00c9 4a3a 10ae 6bbc
00000240: 60ff 65bc 80e3 943a 4859 b83d 8008 24bd
00000250: 8c1e 6fbd 7063 5d3c 8e07 9e3d 1a3f c8bd
00000260: a47f d3bd 4092 c1bb e0ae a63c 00c0 0d39
00000270: 3871 b63c def3 d53d 886d d43c aea2 8cbd
00000280: a218 f13d 889d 89bd bcf1 e73d 8454 1f3d
00000290: ae28 c6bd 4493 293d e864 c2bd e061 a73b
000002a0: 709e 47bc 3877 923d a8a8 743d a84c cfbd
000002b0: 0c21 233d e659 94bd 9071 a03d dccf a8bd
000002c0: 9c1b 3ebd 485e c43d 28cb 7d3d 98c4 4c3d
000002d0: f861 303d 200d fabb 94cb 86bd d6be f4bd
000002e0: 7058 a2bc a8e2 e03d 1c40 b83d 908d d0bc
000002f0: 0416 2abd a488 0dbd f8fd b5bd c87c cf3d
00000300: e8db ecbd 4286 e7bd 60d6 4bbc 707c 7f3c
00000310: 6c09 c93d e026 04bd 8097 80bc d636 e8bd
00000320: c837 f13d c612 efbd 602d 9ebd 5406 41bd
00000330: 400a 02bb 12c6 eebd ca8a a2bd f09c d4bc
00000340: ee7a 9bbd 58d5 e3bd 8437 dabd c08f e5bd
00000350: 12e8 e2bd b0ac 45bc b0a2 9abc 2a74 a93d
00000360: bea7 be3d 28ea d73c 648d 69bd 00ba 2a3d
00000370: 78ab c93c 203d 703d d669 dd3d a87e 8f3d
00000380: e817 b2bc ac65 2a3d 7056 28bc 10d6 68bc
00000390: 28a3 0bbd d659 f3bd 106c f43c 0a58 f83d
000003a0: d4aa d63d 8018 a33d dc8e 78bd e6b3 ce3d
000003b0: 7c16 f7bd 3056 df3c a028 9d3b c8ee c0bd
000003c0: 507a edbd 301c ed3c fa96 dfbd 04b9 d93d
000003d0: 00f2 633b 6a84 d6bd 383a b1bd 7046 9cbc
000003e0: 7438 d2bd da3b a2bd f051 6ebc 2643 e3bd
000003f0: c0e2 bdbb 3006 b3bc ceb5 9c3d 9203 913d

onnx::LSTM_304 f4 [1, 512]
0.13979791 0.2060159 0.1975251 -0.021603066 0.008587523 0.22168258 0.090014875 0.033042345
0.001620952 0.028418433 -0.042028666 0.09588938 0.02894014 0.13987052 0.15528281 0.169509
0.08162497 0.07624538 0.038140688 0.08030992 -0.015913801 0.061058626 0.1462877 0.013005784
0.072877765 0.17755908 0.014156651 0.08178591 0.07340902 0.06726742 0.1100689 0.013572861
0.0023119801 0.006197385 0.00026548892 0.09539336 0.074031174 0.06655592 0.025231011 0.08950643
0.13695642 0.10230626 0.050969165 0.09991675 0.051737078 0.122489035 0.061271228 0.063859776
0.06041865 0.14555222 0.13170065 0.08246418 -0.015633246 0.049954996 0.04061368 0.1924537
0.02559977 0.041002117 0.12775132 0.16594552 0.055010967 0.04336878 0.077118345 0.1545094
0.15862513 0.09537976 0.15580127 0.088917926 0.18218394 -0.0101380935 0.063966066 0.20848924
0.16837774 0.17369959 -0.041006282 0.060764927 0.053170387 -0.033190247 0.1345649 0.045410775
0.17690554 0.18389502 0.16985731 0.089734755 0.120759696 0.22661506 0.11870358 0.077096105
0.055659465 0.11353313 -0.017364778 0.024410028 0.006367157 0.011433465 0.13654175 0.12948039
0.09345783 0.09404096 -0.02905508 0.16165234 -0.027054051 -0.013734806 0.17097731 -0.012980505
0.058941707 0.20039989 0.016301328 0.1091292 -0.011133433 0.084317885 0.14103985 0.12844868
0.09450773 0.17830662 0.09370781 0.03184005 0.030289836 0.17737298 0.07003055 0.09709931
0.05344671 0.18832119 0.10669714 0.15169452 0.1701928 0.04335017 0.14680716 -0.044832885
-0.08296692 -0.059206113 -0.0626352 -0.11938752 0.08570115 -0.055999666 0.022887692 0.016372561
-0.005874008 -0.08342251 -0.04750842 0.09714246 0.057265118 0.110145 0.064758465 0.11279543
-0.118248895 -0.11796002 -0.043745607 0.10048278 0.11360301 0.110757336 0.08243215 -0.005217895
-0.00018326938 -0.03773427 0.058170706 -0.0077295452 -0.047717676 0.11044967 -0.026463047 -0.003823921
-0.027229488 -0.08473723 0.052679792 0.049114868 -0.11194928 -0.10901748 -0.015011892 -0.08517188
-0.052790225 -0.08563408 -0.101279765 0.021353647 0.11100441 0.038848937 0.0007728338 -0.10235508
-0.11298773 -0.110407546 0.06753275 0.066192195 -0.032154262 0.12428565 -0.06091717 0.11322905
0.049997717 -0.07521729 -0.108621344 0.028474987 -0.096948415 0.12130849 0.10815726 -0.0031712651
0.13446054 0.056851145 -0.044456877 -0.024206312 0.032470338 0.016481685 0.12408773 0.045508638
0.16959786 0.15622476 -0.13569166 -0.06390232 0.073500015 -0.05483621 -0.09504862 0.09082768
-0.052858565 0.099889494 0.10004321 -0.012555592 0.07183102 0.13982335 0.15883419 -0.055068843
0.039993685 -0.005613479 -0.07482725 0.09533625 -0.09108566 -0.0032925007 0.08596931 -0.025412431
-0.063739136 -0.1533511 -0.06933302 0.15315154 0.17295326 -0.14540365 0.13076076 -0.05979549
-0.0058241887 0.17364994 -0.08616844 0.08927502 0.058205813 0.079321206 -0.056798615 -0.064006284
-0.13491343 0.032068938 0.0060844435 -0.1243579 0.0010807887 -0.15079568 0.021870315 0.1086488
-0.091782995 -0.026180468 -0.054571446 -0.12349888 -0.059983987 0.15309972 0.115627795 -0.019634048
00000000: 2f27 0f3e d5f5 523e 0544 4a3e eaf8 b0bc
00000010: afb2 0c3c c200 633e b859 b83d 6957 073d
00000020: 2076 d43a c6cd e83c 4026 2cbd a761 c43d
00000030: df13 ed3c 383a 0f3e 7502 1f3e c493 2d3e
00000040: fe2a a73d 8a26 9c3d 6939 1c3d 8779 a43d
00000050: a95d 82bc 9c18 7a3d 71cc 153e 3616 553c
00000060: f040 953d 0cd2 353e 4cf1 673c 5f7f a73d
00000070: 7857 963d 80c3 893d ce6b e13d b560 5e3c
00000080: 9784 173b 6f13 cb3b 5231 8b39 985d c33d
00000090: a89d 973d 784e 883d 44b1 ce3c 264f b73d
000000a0: 4e3e 0c3e f285 d13d 0bc5 503d 27a1 cc3d
000000b0: 42ea 533d 88db fa3d 8af7 7a3d eac8 823d
000000c0: 8c79 773d a40b 153e 89dc 063e fbe2 a83d
000000d0: 4b11 80bc 9c9d 4c3d 885a 263d 9512 453e
000000e0: 9cb6 d13c d6f1 273d 3ed1 023e 9fed 293e
000000f0: 2e53 613d 76a3 313d 39f0 9d3d b637 1e3e
00000100: a06e 223e 7756 c33d 5e8a 1f3e 9a1a b63d
00000110: 6d8e 3a3e 3f1a 26bc a400 833d 347e 553e
00000120: 376b 2c3e 4ede 313e 34f6 27bd a5e4 783d
00000130: 31c9 593d 7ff2 07bd 62cb 093e a600 3a3d
00000140: ba26 353e fa4e 3c3e 13ef 2d3e dbc6 b73d
00000150: dc50 f73d c70d 683e dd1a f33d 90e4 9d3d
00000160: 2efb 633d 0f84 e83d 9440 8ebc 8af7 c73c
00000170: 96a3 d03b 6e53 3b3c 9ad1 0b3e 8296 043e
00000180: d266 bf3d 8c98 c03d eb04 eebc 3188 253e
00000190: 75a0 ddbc f407 61bc ad14 2f3e 2fac 54bc
000001a0: dc6c 713d a135 4d3e 5d8a 853c 217f df3d
000001b0: 0169 36bc dbae ac3d c06c 103e 0d88 033e
000001c0: 458d c13d 0396 363e e1e9 bf3d b66a 023d
000001d0: 6422 f83c 43a1 353e 2d6c 8f3d 01dc c63d
000001e0: f0ea 5a3d 45d7 403e 0884 da3d cf55 1b3e
000001f0: 0547 2e3e f38f 313d 9e54 163e b0a2 37bd
00000200: 90ea a9bd 1c82 72bd e246 80bd 7281 f4bd
00000210: 1684 af3d e85f 65bd f87e bb3c c01f 863c
00000220: c07a c0bb 6cd9 aabd 3098 42bd a0f2 c63d
00000230: d48e 6a3d b493 e13d 16a0 843d 4a01 e73d
00000240: 7a2c f2bd 0695 f1bd 982e 33bd eac9 cd3d
00000250: b2a8 e83d bed4 e23d 30d2 a83d e0fa aabb
00000260: 002c 40b9 408f 1abd 6844 6e3d 2048 fdbb
00000270: 9c73 43bd 7033 e23d 08c9 d8bc c09a 7abb
00000280: 6010 dfbc b68a adbd c4c6 573d ac2c 493d
00000290: aa45 e5bd 8e44 dfbd 70f4 75bc 986e aebd
000002a0: 903a 58bd ec60 afbd c46b cfbd d8ed ae3c
000002b0: 4856 e33d 1020 1f3d 0098 4a3a 8a9f d1bd
000002c0: 1c66 e7bd 5a1d e2bd 9c4e 8a3d c68f 873d
000002d0: 30b4 03bd 7a89 fe3d 4884 79bd a2e4 e73d
000002e0: 68ca 4c3d 860b 9abd de74 debd 6044 e93c
000002f0: e48c c6bd 9670 f83d 8e81 dd3d 00d5 4fbb
00000300: 06b0 093e bfdc 683d 6a18 36bd 514c c6bc
00000310: 9eff 043d 9904 873c b521 fe3d 4467 3a3d
00000320: 10ab 2d3e 62f9 1f3e c1f2 0abe 38df 82bd
00000330: 2d87 963d ef9b 60bd daa8 c2bd dd03 ba3d
00000340: 3982 58bd dd92 cc3d 74e3 cc3d f8b5 4dbc
00000350: 241c 933d da2d 0f3e 6ea5 223e de8f 61bd
00000360: 6bd0 233d 46f1 b7bb 073f 99bd a73f c33d
00000370: 1e8b babd ffc6 57bb ad10 b03d bb2d d0bc
00000380: aa89 82bd 1208 1dbe 78fe 8dbd c2d3 1c3e
00000390: a91a 313e b2e4 14be 26e6 053e 1eec 74bd
000003a0: d6d8 bebb 4ad1 313e 1479 b0bd d2d5 b63d
000003b0: 3869 6e3d 2873 a23d aaa5 68bd ba15 83bd
000003c0: bf26 0abe b85a 033d 0360 c73b 5baf febd
000003d0: 40a9 8d3a 2f6a 1abe 6029 b33c 4383 de3d
000003e0: b9f8 bbbd 6c78 d6bc 4f86 5fbd fbec fcbd
000003f0: c5b1 75bd 2cc6 1c3e 44ce ec3d 95d7 a0bc
